predict_model.pkl (torch, 255175 bytes, 10 tensors)

weight_ih f8 [200, 3]
0.06285797671975762 0.10839179757220443 -0.003560544521207272 0.06775411055309287 -0.05105292724114704 0.0828643179626415 -0.01665433879890875 -0.021955834383618023
-0.10116231940089854 -0.06049229568389317 -0.13708744535100442 0.030961997425369488 0.1252468823817529 -0.11027167137799879 0.0910398687636622 -0.03551815144332432
-0.06551755673946348 -0.07581288415808127 0.01749381053921275 0.057054103698670415 0.011246314447026005 0.1109030622886736 0.1761963712139633 0.16676819405239365
-0.12972193307295257 -0.14616643823643996 0.10536282048718357 0.051983336102694115 0.02516345495019055 0.1537002723615182 -0.0009125664368538272 0.08843351260744958
0.10497627786812609 0.05586328183549749 0.060760011376701145 0.01883716579114229 -0.19482095265712054 -0.13375478667855917 -0.0975159708503633 0.04475402466055147
0.004338626798025151 0.017754982192291276 0.012962139030847367 -0.04789766847606481 -0.024439131933242323 -0.12323069049798412 0.07208234266189538 0.06394472462381816
0.09186952510979003 0.1330570913679612 0.25346005129657784 0.012714371625697581 -0.22752393548032404 0.017877796427889163 -0.10760985235423129 -0.08370773732207792
0.11851704126262197 0.0012588962738775016 0.03817450653749993 -0.05299746993262614 0.07634576145012419 0.1589015317370055 0.03585209862497217 -0.1638026142586724
-0.11608510320715018 -0.2868964044981345 -0.015328258220233584 -0.046773220405512746 -0.07083764936862505 -0.002229470410730211 -0.011922319582735087 0.0749087572321309
0.07895846292629483 0.11966424443804262 0.03620035640488317 0.013277735329642572 -0.05996951618954964 -0.11364494027602956 0.08459652808662205 0.020727559982948784
-0.016846181485685584 0.009191154312598069 0.027456340291747833 0.08398221278761907 -0.15343912887246375 0.0022484192216779314 0.07153496830389902 -0.00632870981444978
-0.031504131203993264 0.0967577598373684 -0.05806557585874318 0.14712977155499557 0.014505725951589886 0.11125335515908483 0.02367564007001146 0.0860716120621161
0.05379580597864978 0.1252104055211958 -0.1201215024800043 -0.12573588493764148 -0.1013276594729717 -0.1270348962258069 -0.061426759593833806 -0.025992689904235748
0.002220956666408064 -0.006722374134986563 0.043190947370516736 0.02124721950805734 -0.04830138652508587 0.02252060139921257 -0.08978607820409862 0.12655716979380005
-0.11002211780099395 0.13890815015910418 0.037380363202434694 -0.11472626523085949 -0.08819956267789907 -0.0035859999686691127 0.11274277434963909 -0.053507104965111386
0.18514237612985868 0.12109601004974566 -0.12071706578144077 -0.08284458507472171 -0.03747192310562529 -0.1413872781446076 0.03752442017405232 0.12032584752165876
-0.03983809954683828 -0.10558603335570874 0.1515941260427809 0.01624991826400917 0.08553458880989906 0.05283609801316381 0.14680994813210485 0.1319767814929269
0.08532693629057977 0.006172236001529384 0.1794673078563024 -0.01472542123491863 0.2010691452280853 -0.009217231323639823 0.04580674162155353 0.07237543103208258
-0.06514155806116415 0.14064253186438436 0.0353752601033226 0.003897698377751484 0.07990725627308905 0.040057549401188754 0.06551608443260193 -0.01998566836118698
0.0634293258190155 0.11162002384662628 -0.07618432492017746 -0.007423579692840576 0.1390460580587387 0.09215879440307617 -0.05721564590930939 0.11660848557949066
0.04860827326774597 0.1124633401632309 0.09936022758483887 0.11778344213962555 0.02800135314464569 -0.028531379997730255 0.11479420959949493 0.06549018621444702
-0.1320497691631317 0.06191825866699219 0.07494047284126282 0.1230587512254715 0.011213123798370361 -0.09577679634094238 -0.012340769171714783 -0.1370585560798645
-0.02112661302089691 -0.01889721304178238 -0.02096652239561081 0.12728609144687653 -0.10897107422351837 0.042276531457901 -0.06259094178676605 -0.1233847364783287
0.045493751764297485 0.0014044195413589478 0.14001481235027313 0.09245194494724274 -0.01119762659072876 0.1358148604631424 0.06071944534778595 0.025735318660736084
-0.0022218823432922363 -0.05238880217075348 -0.13128376007080078 -0.023754030466079712 -0.13824090361595154 -0.0862782895565033 0.128665491938591 0.13345952332019806
-0.10141485929489136 0.12725241482257843 0.04852387309074402 0.12400905787944794 -0.1019534021615982 0.08829104900360107 0.057008400559425354 -0.025798507034778595
0.012691140174865723 -0.014207437634468079 0.0927356630563736 -0.045286960899829865 -0.011994287371635437 -0.12737400829792023 -0.08517134934663773 0.07017548382282257
0.12346972525119781 0.021274149417877197 0.02228151261806488 -0.12331312149763107 -0.09402606636285782 -0.11438402533531189 0.013653799891471863 -0.0398087278008461
-0.016349703073501587 -0.11357780545949936 -0.05787254869937897 0.015739381313323975 0.028452008962631226 0.06305278837680817 0.0018596500158309937 0.13863499462604523
0.008356884121894836 -0.0067771971225738525 0.06617310643196106 0.09854690730571747 0.09883730113506317 0.008897244930267334 0.06391377747058868 -0.02178734540939331
0.044340044260025024 0.0898914784193039 0.09142450988292694 -0.019815593957901 0.11287637054920197 0.12290941178798676 0.024073690176010132 -0.1192404180765152
0.015171632170677185 -0.1354888379573822 0.08726847171783447 -0.02634754776954651 0.03785325586795807 -0.049269817769527435 0.0754111111164093 -0.105983667075634
00000000: bcd8 4dda 7517 b03f 622e ba99 90bf bb3f
00000010: 4302 c9c8 002b 6dbf 07bf fe58 5558 b13f
00000020: 5b49 bbf9 9b23 aabf e9a6 a78f 9836 b53f
00000030: dc48 e9c1 d50d 91bf 9d3f 891a 977b 96bf
00000040: dc13 6a15 c6e5 b9bf e59b 3e9f d8f8 aebf
00000050: a6c4 3cd7 148c c1bf 1275 7179 80b4 9f3f
00000060: 16b7 e0ff 1608 c03f 5267 3ea6 c33a bcbf
00000070: ffd8 f88a 634e b73f 8816 ba65 6f2f a2bf
00000080: 9183 8233 c2c5 b0bf 960b 1322 7968 b3bf
00000090: 26e6 97c0 e5e9 913f 370d fa0a 3236 ad3f
000000a0: df0a 01c6 4e08 873f d55c 8ea1 2464 bc3f
000000b0: 36d8 044a 9a8d c63f d5e7 bb01 a958 c53f
000000c0: 4da5 0f72 ba9a c0bf bdc8 fff3 94b5 c2bf
000000d0: 06ef 34cc 0ef9 ba3f 0f00 ff50 8f9d aa3f
000000e0: 1b02 43e0 72c4 993f e9e9 9655 73ac c33f
000000f0: bd2d 3880 29e7 4dbf 60f7 8424 94a3 b63f
00000100: 25a6 4cb0 b9df ba3f f0b6 0fb1 1c9a ac3f
00000110: 4cf8 88ab ef1b af3f 2bd2 16cc 0c4a 933f
00000120: 6973 1e9a e4ef c8bf 1ae3 3b79 e01e c1bf
00000130: 05d7 a381 cef6 b8bf b319 90e0 ffe9 a63f
00000140: b825 5043 61c5 713f 3285 6daf 5c2e 923f
00000150: 6220 cad9 e48b 8a3f 2196 510f 0b86 a8bf
00000160: 2168 9561 9206 99bf 2366 8de9 0b8c bfbf
00000170: 8716 5a08 fd73 b23f 87d2 0275 ae5e b03f
00000180: 2d79 d8dd c284 b73f 4190 f6c7 0308 c13f
00000190: 7b52 ca81 b038 d03f d18e 9212 fe09 8a3f
000001a0: 81fc f81a 811f cdbf cee7 ed9b 8e4e 923f
000001b0: 62bc 96bc 518c bbbf 9871 38ca de6d b5bf
000001c0: 60dc 3d00 2257 be3f 4ab3 d294 31a0 543f
000001d0: 282f 3de2 9b8b a33f 4543 4300 7c22 abbf
000001e0: 01d3 9d54 658b b33f 9820 0ca9 e256 c43f
000001f0: 5ea8 2cce 345b a23f 31c2 9eeb 7bf7 c4bf
00000200: b2d6 d3d9 c0b7 bdbf d734 aabc 825c d2bf
00000210: 5b99 15fe 6b64 8fbf 29c8 f0d7 a8f2 a7bf
00000220: 5a1f 5d8b 6a22 b2bf 402c 0cd0 8943 62bf
00000230: da3a 9aa5 ba6a 88bf 3bfa 7e66 382d b33f
00000240: 08c8 0230 9f36 b43f 4ba8 5ce0 50a2 be3f
00000250: e09b b965 da88 a23f 2ecb 0b78 5b31 8b3f
00000260: 9605 950d 53b4 aebf 5067 d7b5 d517 bdbf
00000270: 4cb8 7c39 1ea8 b53f f0b4 0201 9b39 953f
00000280: 568b 2c1a 2040 91bf b214 7bd9 cfd2 823f
00000290: 45ce 7bce 831d 9c3f 6f58 5eb9 db7f b53f
000002a0: 0a8c 37b4 e4a3 c3bf c932 cbe0 466b 623f
000002b0: 7eb9 629d 1d50 b23f 08ec dc1a 22ec 79bf
000002c0: e98a 6b3a 4f21 a0bf 84be 22d6 1dc5 b83f
000002d0: 2265 ac6a c5ba adbf 425f 8cfa 25d5 c23f
000002e0: 5fd7 8894 2db5 8d3f be81 fa91 197b bc3f
000002f0: 6611 404f 6d3e 983f bfb8 eb06 ca08 b63f
00000300: d536 aeb6 1f8b ab3f 318d 6a02 e506 c03f
00000310: 38b0 b264 48c0 bebf 2ed2 de0c 1d18 c0bf
00000320: fedb 9d07 9cf0 b9bf cdcb 5ef2 ad42 c0bf
00000330: df0a 1c07 5473 afbf 3e88 4be4 d39d 9abf
00000340: c112 f007 af31 623f 8cda fa90 eb88 7bbf
00000350: bc16 e1b4 1f1d a63f 8b12 acc3 d4c1 953f
00000360: e111 f496 f5ba a8bf 4dc5 fbf9 a30f 973f
00000370: cccf 856d 38fc b6bf 345a ab7c 0633 c03f
00000380: d3bb cad5 682a bcbf 1465 0a05 bec7 c13f
00000390: 5622 efda 8423 a33f b8a4 2855 b35e bdbf
000003a0: af1b 391d 3f94 b6bf a731 d812 6360 6dbf
000003b0: 6827 b1e0 b5dc bc3f b58a db83 4865 abbf
000003c0: be6d 4ad1 beb2 c73f 86f9 d6ea 2500 bf3f
000003d0: c5b1 9949 50e7 bebf 41ef 8b7f 4d35 b5bf
000003e0: be86 8318 852f a3bf 3ccc d973 fa18 c2bf
000003f0: 7ed8 e59a 6636 a33f d810 f8bb accd be3f
00000400: 337e 60cd a865 a4bf aa58 2db0 af07 bbbf
00000410: 014a cfb2 6f67 c33f 2ec0 068e d1a3 903f
00000420: e085 9d45 98e5 b53f 7192 0742 550d ab3f
00000430: 6a38 fa1a abca c23f 78f6 2b7c 9de4 c03f
00000440: 92fe d570 fcd7 b53f 7ef2 50fc 0e48 793f
00000450: 6dd4 f8e4 c8f8 c63f 918a fd94 5c28 8ebf
00000460: 69a1 7e3d a2bc c93f fcf1 c1d8 7be0 82bf
00000470: a2db 6632 fb73 a73f 2213 513d 3287 b23f
00000480: 06b2 7bfd 1dad b0bf a45f 6411 9300 c23f
00000490: 4168 76c2 b41c a23f 57d8 fce1 10ee 6f3f
000004a0: 29f0 674c cd74 b43f 1da3 4551 6c82 a43f
000004b0: 0000 0080 a9c5 b03f 0000 0080 1f77 94bf
000004c0: 0000 0080 e73c b03f 0000 0040 2193 bc3f
000004d0: 0000 00e0 d080 b3bf 0000 0000 3068 7ebf
000004e0: 0000 00e0 42cc c13f 0000 0000 b897 b73f
000004f0: 0000 0080 5e4b adbf 0000 00c0 0dda bd3f
00000500: 0000 0000 2fe3 a83f 0000 00c0 65ca bc3f
00000510: 0000 0000 ac6f b93f 0000 0040 0e27 be3f
00000520: 0000 0000 63ac 9c3f 0000 0080 5437 9dbf
00000530: 0000 0040 2763 bd3f 0000 0000 f7c3 b03f
00000540: 0000 00c0 01e7 c0bf 0000 0000 c0b3 af3f
00000550: 0000 0080 4c2f b33f 0000 0040 c780 bf3f
00000560: 0000 0000 e8f6 863f 0000 0000 d484 b8bf
00000570: 0000 0000 1e46 89bf 0000 0080 228b c1bf
00000580: 0000 0000 37a2 95bf 0000 0080 ca59 93bf
00000590: 0000 0080 3f78 95bf 0000 0020 e94a c03f
000005a0: 0000 0040 87e5 bbbf 0000 0000 45a5 a53f
000005b0: 0000 00c0 f505 b0bf 0000 0060 2496 bfbf
000005c0: 0000 0000 f54a a73f 0000 0000 9002 573f
000005d0: 0000 0060 01ec c13f 0000 0040 eeaa b73f
000005e0: 0000 0000 c8ee 86bf 0000 00a0 6162 c13f
000005f0: 0000 0080 9e16 af3f 0000 0000 5c5a 9a3f
00000600: 0000 0000 a033 62bf 0000 0080 b4d2 aabf
00000610: 0000 0000 e8cd c0bf 0000 0000 fa52 98bf
00000620: 0000 00c0 e0b1 c1bf 0000 0080 5516 b6bf
00000630: 0000 0060 1c78 c03f 0000 00a0 3315 c13f
00000640: 0000 0000 53f6 b9bf 0000 00a0 ce49 c03f
00000650: 0000 0000 1fd8 a83f 0000 00c0 0ebf bf3f
00000660: 0000 0040 9e19 babf 0000 0000 3e9a b63f
00000670: 0000 0080 3430 ad3f 0000 0080 ec6a 9abf
00000680: 0000 0000 d0fd 893f 0000 0000 ca18 8dbf
00000690: 0000 0040 86bd b73f 0000 0040 da2f a7bf
000006a0: 0000 0000 7690 88bf 0000 00a0 ca4d c0bf
000006b0: 0000 0020 cacd b5bf 0000 0040 05f7 b13f
000006c0: 0000 0040 b69b bf3f 0000 0000 e4c8 953f
000006d0: 0000 0000 f7d0 963f 0000 00e0 7291 bfbf
000006e0: 0000 00a0 1712 b8bf 0000 0080 4548 bdbf
000006f0: 0000 0000 86f6 8b3f 0000 0040 cf61 a4bf
00000700: 0000 0000 fabd 90bf 0000 0060 6f13 bdbf
00000710: 0000 0080 78a1 adbf 0000 0000 fc1d 903f
00000720: 0000 0000 8622 9d3f 0000 0040 3a24 b03f
00000730: 0000 0000 f077 5e3f 0000 00a0 cabe c13f
00000740: 0000 0000 6a1d 813f 0000 0000 68c2 7bbf
00000750: 0000 0080 b8f0 b03f 0000 00c0 5e3a b93f
00000760: 0000 00c0 664d b93f 0000 0000 b838 823f
00000770: 0000 0040 a75c b03f 0000 0000 6c4f 96bf
00000780: 0000 0000 bdb3 a63f 0000 00c0 2003 b73f
00000790: 0000 00c0 9867 b73f 0000 0000 8a4a 94bf
000007a0: 0000 0040 77e5 bc3f 0000 00c0 fd76 bf3f
000007b0: 0000 0000 c6a6 983f 0000 0040 8a86 bebf
000007c0: 0000 0000 4e12 8f3f 0000 00c0 b257 c1bf
000007d0: 0000 0000 3a57 b63f 0000 0000 dafa 9abf
000007e0: 0000 0080 8061 a33f 0000 00c0 e439 a9bf
000007f0: 0000 0080 244e b33f 0000 00e0 be21 bbbf

weight_hh f8 [200, 50]
-0.0706445649266243 0.04048149287700653 0.1072375476360321 -0.013492181897163391 0.076712965965271 -0.02965588867664337 -0.01956738531589508 -0.1397750973701477
-0.0007498413324356079 -0.0673430785536766 -0.004220008850097656 0.05215993523597717 0.13909496366977692 0.04237283766269684 0.1358419507741928 -0.13260401785373688
0.00911642611026764 -0.0818910300731659 -0.028734207153320312 0.00020651519298553467 -0.004373833537101746 -5.888938903808594e-05 -0.001785174012184143 0.007287442684173584
-0.04221834987401962 -0.13955622911453247 0.11181704699993134 -0.11348042637109756 0.09047999978065491 -0.02985517680644989 -0.10970038175582886 0.0855056643486023
-0.08243192732334137 0.1052149087190628 -0.05162184685468674 0.01615053415298462 -0.053941525518894196 0.04882900416851044 0.11010383069515228 0.07450456917285919
0.11831261217594147 0.13644380867481232 0.033673688769340515 0.08472968637943268 0.12110532820224762 0.12421165406703949 0.09160999953746796 -0.05105838179588318
0.13507141172885895 -0.04260715842247009 -0.08915282785892487 0.0757274478673935 0.00944221019744873 0.11126978695392609 0.010511040687561035 0.11217914521694183
-0.08202415704727173 -0.1219249740242958 -0.09614129364490509 0.11386178433895111 0.08857429027557373 -0.03668994456529617 0.02368547022342682 -0.04060836881399155
-0.05113153159618378 -0.08113542199134827 -0.010567963123321533 0.087823286652565 -0.09285375475883484 0.12880541384220123 0.06814144551753998 -0.04962638020515442
-0.01595376431941986 0.1280115395784378 -0.042713239789009094 -0.11480587720870972 -0.0553826168179512 -0.12688997387886047 0.04913493990898132 0.031507059931755066
-0.11344541609287262 0.10259094834327698 -0.06351953744888306 -0.04375884681940079 0.009607478976249695 0.14002464711666107 0.051774874329566956 -0.08187088370323181
0.019785985350608826 0.13183526694774628 -0.0036326199769973755 0.06333453953266144 -0.05721157044172287 -0.07712242752313614 0.10405860841274261 0.10620909929275513
-0.12512224912643433 0.09731730818748474 0.048318639397621155 -0.09706313908100128 -0.12342145293951035 -0.03590989112854004 -0.0950983464717865 -0.05038834363222122
-0.10406497120857239 -0.1315973848104477 0.026342958211898804 -0.07537399232387543 -0.07486104965209961 -0.08666572719812393 0.11316321790218353 0.08196397125720978
0.03912226855754852 0.1014423817396164 -0.11102405935525894 0.12833000719547272 -0.11095242947340012 -0.05076131224632263 -0.06382416933774948 0.060174793004989624
-0.02043560892343521 0.10187703371047974 -0.024578005075454712 -0.1012941375374794 -0.06701420247554779 0.05654036998748779 -0.12894774973392487 -0.05913000553846359
-0.07245641946792603 -0.08449196070432663 0.03140856325626373 0.14081867039203644 0.055498287081718445 0.07472243905067444 0.1396232694387436 0.0450749546289444
-0.13829392194747925 -0.02936623990535736 0.13643129169940948 -0.013167902827262878 -0.0684884637594223 -0.13462477922439575 -0.06183704733848572 0.10979767143726349
0.033232659101486206 0.04782061278820038 0.1253669410943985 0.10171043872833252 0.09331777691841125 -0.13890258967876434 -0.0036525875329971313 -0.11266441643238068
-0.06921618431806564 -0.00045803189277648926 0.09112764894962311 0.1243172436952591 -0.011281535029411316 -0.05570097267627716 -0.09018230438232422 0.07985499501228333
0.04771474003791809 -0.09289123862981796 0.06742970645427704 0.12753747403621674 0.09734070301055908 -0.13844133913516998 0.021165356040000916 0.09745626151561737
-0.11848706752061844 -0.03754790127277374 0.08457779884338379 0.08822306990623474 -0.04085351526737213 0.08719243109226227 -0.02253814786672592 -0.010395228862762451
0.025441139936447144 -0.048736102879047394 0.1220874935388565 0.11508484184741974 -0.062230564653873444 -0.08480086177587509 -0.05338861048221588 0.025584235787391663
-0.08711819350719452 0.05539758503437042 0.07519568502902985 -0.03469948470592499 -0.1093006432056427 0.027270600199699402 0.0963200032711029 0.1250014454126358
0.00398583710193634 -0.13066190481185913 -0.10071814060211182 0.03741125762462616 -0.033589452505111694 -0.11677505075931549 0.13369609415531158 -0.1259566694498062
-0.038793377578258514 -0.10864318907260895 -0.04564841091632843 -0.02003190666437149 -0.11496568471193314 -0.05343831330537796 0.038022398948669434 0.06848171353340149
0.02264973521232605 0.02303473651409149 0.038995400071144104 0.13917119801044464 -0.10374285280704498 -0.027085423469543457 -0.04474505037069321 -0.1175255998969078
-0.019047141075134277 -0.02688974142074585 0.11322574317455292 -0.004661932587623596 0.12565363943576813 -0.043654292821884155 0.12504912912845612 -0.055887699127197266
-0.10599774122238159 -0.03960328549146652 -0.04837801307439804 -0.07737384736537933 0.026861995458602905 -0.03888453543186188 -0.08069432526826859 0.1380946785211563
0.0350755900144577 0.11812545359134674 -0.08117897808551788 -0.09759421646595001 -0.05068674683570862 0.11557616293430328 0.09199224412441254 0.009519606828689575
-0.13183729350566864 -0.011109158396720886 -0.11522474884986877 0.04368406534194946 0.030582711100578308 -0.124812550842762 -0.06982079148292542 0.02879512310028076
-0.1268080323934555 -0.08229140937328339 -0.08246731013059616 0.0652942955493927 -0.1042175143957138 -0.0806986540555954 0.12084488570690155 0.053793907165527344
00000000: 0000 0020 c315 b2bf 0000 0080 fdb9 a43f
00000010: 0000 0080 eb73 bb3f 0000 0000 caa1 8bbf
00000020: 0000 0000 76a3 b33f 0000 0000 1d5e 9ebf
00000030: 0000 0000 7909 94bf 0000 0080 26e4 c1bf
00000040: 0000 0000 2092 48bf 0000 0060 653d b1bf
00000050: 0000 0000 0049 71bf 0000 0000 b5b4 aa3f
00000060: 0000 0020 ddcd c13f 0000 0080 e4b1 a53f
00000070: 0000 00e0 4463 c13f 0000 0020 2bf9 c0bf
00000080: 0000 0000 a2ab 823f 0000 0080 cff6 b4bf
00000090: 0000 0000 806c 9dbf 0000 0000 8011 2b3f
000000a0: 0000 0000 4cea 71bf 0000 0000 00e0 0ebf
000000b0: 0000 0000 903f 5dbf 0000 0000 70d9 7d3f
000000c0: 0000 00c0 a49d a5bf 0000 0080 fadc c1bf
000000d0: 0000 00c0 0aa0 bc3f 0000 00a0 0d0d bdbf
000000e0: 0000 0080 b229 b73f 0000 0000 5b92 9ebf
000000f0: 0000 0000 5315 bcbf 0000 0000 b3e3 b53f
00000100: 0000 0040 421a b5bf 0000 0040 5def ba3f
00000110: 0000 00c0 2d6e aabf 0000 0000 c489 903f
00000120: 0000 0040 399e abbf 0000 0080 1d00 a93f
00000130: 0000 00c0 c32f bc3f 0000 0040 bb12 b33f
00000140: 0000 0040 bc49 be3f 0000 00a0 fd76 c13f
00000150: 0000 0080 ad3d a13f 0000 0040 d8b0 b53f
00000160: 0000 0040 c200 bf3f 0000 00c0 55cc bf3f
00000170: 0000 00c0 c073 b73f 0000 0000 5324 aabf
00000180: 0000 0020 054a c13f 0000 0000 9bd0 a5bf
00000190: 0000 0040 b8d2 b6bf 0000 00c0 df62 b33f
000001a0: 0000 0000 7056 833f 0000 0040 2d7c bc3f
000001b0: 0000 0000 d086 853f 0000 00c0 c5b7 bc3f
000001c0: 0000 0000 89ff b4bf 0000 00a0 7936 bfbf
000001d0: 0000 0040 b79c b8bf 0000 00c0 0b26 bd3f
000001e0: 0000 0000 ceac b63f 0000 0040 06c9 a2bf
000001f0: 0000 0000 0141 983f 0000 00c0 9eca a4bf
00000200: 0000 0080 e92d aabf 0000 0080 4ac5 b4bf
00000210: 0000 0000 a8a4 85bf 0000 0040 967b b63f
00000220: 0000 0080 43c5 b7bf 0000 0020 b27c c03f
00000230: 0000 00c0 b771 b13f 0000 0000 a168 a9bf
00000240: 0000 0000 2f56 90bf 0000 00a0 ae62 c03f
00000250: 0000 0080 82de a5bf 0000 0000 eb63 bdbf
00000260: 0000 0040 1c5b acbf 0000 0040 ee3d c0bf
00000270: 0000 0000 3728 a93f 0000 0080 b121 a03f
00000280: 0000 0040 c20a bdbf 0000 0080 6643 ba3f
00000290: 0000 0000 d142 b0bf 0000 0040 8f67 a6bf
000002a0: 0000 0000 16ad 833f 0000 00e0 53ec c13f
000002b0: 0000 0080 3c82 aa3f 0000 0080 7df5 b4bf
000002c0: 0000 0000 c742 943f 0000 0060 fadf c03f
000002d0: 0000 0000 28c2 6dbf 0000 0040 b136 b03f
000002e0: 0000 00c0 d54a adbf 0000 00a0 4bbe b3bf
000002f0: 0000 00c0 95a3 ba3f 0000 0000 8530 bb3f
00000300: 0000 0080 0104 c0bf 0000 0080 c9e9 b83f
00000310: 0000 0080 38bd a83f 0000 0040 21d9 b8bf
00000320: 0000 0060 8c98 bfbf 0000 0000 c862 a2bf
00000330: 0000 0080 5d58 b8bf 0000 0040 80cc a9bf
00000340: 0000 0080 00a4 babf 0000 00e0 2ed8 c0bf
00000350: 0000 0000 a6f9 9a3f 0000 00c0 b54b b3bf
00000360: 0000 0000 182a b3bf 0000 00a0 b92f b6bf
00000370: 0000 00c0 43f8 bc3f 0000 0040 97fb b43f
00000380: 0000 0080 d507 a43f 0000 00c0 20f8 b93f
00000390: 0000 00a0 126c bcbf 0000 0020 1e6d c03f
000003a0: 0000 00e0 6067 bcbf 0000 0000 63fd a9bf
000003b0: 0000 00e0 c756 b0bf 0000 0000 3bcf ae3f
000003c0: 0000 0080 12ed 94bf 0000 0000 9d14 ba3f
000003d0: 0000 0000 fa2a 99bf 0000 00a0 69ee b9bf
000003e0: 0000 00c0 d727 b1bf 0000 0000 dcf2 ac3f
000003f0: 0000 0020 5c81 c0bf 0000 00c0 4946 aebf
00000400: 0000 0000 818c b2bf 0000 00e0 43a1 b5bf
00000410: 0000 0080 c814 a03f 0000 00a0 5806 c23f
00000420: 0000 0080 456a ac3f 0000 0080 0221 b33f
00000430: 0000 00e0 2cdf c13f 0000 0080 1014 a73f
00000440: 0000 0080 9db3 c1bf 0000 0000 2f12 9ebf
00000450: 0000 00a0 9476 c13f 0000 0000 c6f7 8abf
00000460: 0000 00c0 7588 b1bf 0000 0080 623b c1bf
00000470: 0000 0000 1ba9 afbf 0000 0040 b31b bc3f
00000480: 0000 0000 df03 a13f 0000 0080 f17b a83f
00000490: 0000 0020 060c c03f 0000 0000 b209 ba3f
000004a0: 0000 0080 ace3 b73f 0000 0060 8fc7 c1bf
000004b0: 0000 0000 08ec 6dbf 0000 0040 93d7 bcbf
000004c0: 0000 00e0 26b8 b1bf 0000 0000 8004 3ebf
000004d0: 0000 0040 2454 b73f 0000 0040 41d3 bf3f
000004e0: 0000 0000 c61a 87bf 0000 0080 d684 acbf
000004f0: 0000 0000 3016 b7bf 0000 0080 6071 b43f
00000500: 0000 0000 116e a83f 0000 0060 b8c7 b7bf
00000510: 0000 00c0 1243 b13f 0000 00e0 2553 c03f
00000520: 0000 0000 52eb b83f 0000 0020 72b8 c1bf
00000530: 0000 0000 5fac 953f 0000 00c0 e4f2 b83f
00000540: 0000 0020 2b55 bebf 0000 0080 7a39 a3bf
00000550: 0000 0000 e4a6 b53f 0000 0080 c995 b63f
00000560: 0000 0080 c0ea a4bf 0000 0040 3e52 b63f
00000570: 0000 0080 3d14 97bf 0000 0000 184a 85bf
00000580: 0000 0000 3e0d 9a3f 0000 0040 f0f3 a8bf
00000590: 0000 0040 2041 bf3f 0000 0040 3376 bd3f
000005a0: 0000 0040 afdc afbf 0000 0060 82b5 b5bf
000005b0: 0000 0080 c055 abbf 0000 0000 c132 9a3f
000005c0: 0000 00c0 604d b6bf 0000 0080 125d ac3f
000005d0: 0000 0040 0640 b33f 0000 0080 21c4 a1bf
000005e0: 0000 0080 20fb bbbf 0000 0000 d3ec 9b3f
000005f0: 0000 0080 6da8 b83f 0000 0020 0c00 c03f
00000600: 0000 0000 7453 703f 0000 0080 87b9 c0bf
00000610: 0000 0000 aac8 b9bf 0000 0080 9127 a33f
00000620: 0000 0000 a332 a1bf 0000 0040 f8e4 bdbf
00000630: 0000 0020 f41c c13f 0000 0020 591f c0bf
00000640: 0000 00c0 b9dc a3bf 0000 0040 0ad0 bbbf
00000650: 0000 0080 3a5f a7bf 0000 0080 3e83 94bf
00000660: 0000 0020 646e bdbf 0000 0040 445c abbf
00000670: 0000 0000 ac77 a33f 0000 0080 0488 b13f
00000680: 0000 0000 7e31 973f 0000 0000 6b96 973f
00000690: 0000 0080 34f7 a33f 0000 00a0 5cd0 c13f
000006a0: 0000 0040 e48e babf 0000 0000 48bc 9bbf
000006b0: 0000 00c0 d2e8 a6bf 0000 0060 2816 bebf
000006c0: 0000 0000 1881 93bf 0000 0000 fc88 9bbf
000006d0: 0000 00c0 5cfc bc3f 0000 0000 6418 73bf
000006e0: 0000 0020 6b15 c03f 0000 0000 db59 a6bf
000006f0: 0000 0020 9c01 c03f 0000 0000 509d acbf
00000700: 0000 0000 ab22 bbbf 0000 00c0 e146 a4bf
00000710: 0000 00c0 00c5 a8bf 0000 00c0 c5ce b3bf
00000720: 0000 0000 b681 9b3f 0000 0080 ace8 a3bf
00000730: 0000 0020 62a8 b4bf 0000 0020 16ad c13f
00000740: 0000 0080 6df5 a13f 0000 0040 783d be3f
00000750: 0000 0040 25c8 b4bf 0000 0040 effb b8bf
00000760: 0000 0000 9df3 a9bf 0000 0040 6696 bd3f
00000770: 0000 00c0 cd8c b73f 0000 0000 047f 833f
00000780: 0000 0060 0be0 c0bf 0000 0000 66c0 86bf
00000790: 0000 0080 5e7f bdbf 0000 0000 c25d a63f
000007a0: 0000 0000 1351 9f3f 0000 0020 b7f3 bfbf
000007b0: 0000 0080 c6df b1bf 0000 0000 787c 9d3f
000007c0: 0000 00e0 3e3b c0bf 0000 00c0 0c11 b5bf
000007d0: 0000 00e0 931c b5bf 0000 0080 20b7 b03f
000007e0: 0000 00c0 ffad babf 0000 00c0 aaa8 b4bf
000007f0: 0000 00c0 b0ef be3f 0000 0000 e08a ab3f

bias_ih f8 [200]
-0.07514911604127733 -0.09409876515729011 0.0014510962783732078 -0.05722048835989926 0.009258722295534778 0.03319423065550022 0.10078770798793833 -0.09165067824181725
-0.027040733947281452 -0.06857268535325303 -0.09031289082598876 -0.009786726187774602 0.021767744674856985 -0.001559998448173056 0.13580041779040847 0.13025877483669912
0.10601348254412703 -0.0061089249156097035 -0.016695169457446483 0.03398890586963934 0.05751274613495631 0.10253144100409074 -0.04883718313231384 -0.11172703440596392
0.11740906607483065 0.0025332188574079422 -0.11726942523103992 -0.2330625025345332 0.057928014204465604 0.11297012547124599 0.1586222882357264 0.022436616900520633
-0.09756082864073366 0.11638800080136603 0.14037248846085543 -0.2447849753067112 -0.027611863698674 -0.0644996503070661 0.12530700504725562 -0.07228234745363987
-0.016588727921346694 0.05866689119748989 -0.12834472934355307 -0.1562843260228791 0.03515599657053569 0.13407692808829247 -0.03878902181407523 -0.0043701607424577885
0.10377355844310956 -0.09394282924608795 -0.002575516700744629 -0.08147282898426056 0.029325425624847412 0.08654597401618958 -0.08768070489168167 -0.07111495733261108
0.09929132461547852 -0.09845826029777527 -0.09634651988744736 0.1134008914232254 0.016029879450798035 0.005495935678482056 -0.11888174712657928 -0.08272120356559753
0.10116834938526154 0.005426779389381409 0.010836690664291382 0.10216258466243744 0.031753212213516235 0.0028255581855773926 0.13628043234348297 0.10261428356170654
0.08140315115451813 -0.028002284467220306 0.061791494488716125 0.12115977704524994 -0.035570427775382996 -0.12464018911123276 0.01243487000465393 0.07152855396270752
-0.11562132090330124 0.05945086479187012 0.04912528395652771 -0.06610526144504547 -0.13452158868312836 -0.05308815836906433 0.020486876368522644 -0.14103244245052338
0.06270980834960938 -0.028709352016448975 0.06328064203262329 -0.12041577696800232 -0.08884810656309128 -0.08459611237049103 0.061706870794296265 0.0005006641149520874
-0.04528609663248062 -0.0749177634716034 -0.13128073513507843 0.1124897450208664 -0.11829921853659636 -0.03087638310737188 0.04280052158989992 0.023988388576464608
0.11057955816238182 0.023208383966335615 0.07311277252995693 -0.0856607155121239 -0.024667210667762354 -0.09200121434205243 -0.3905032107214841 0.10616220466253826
0.05231433395679747 0.10450391194808926 -0.14283629240377943 -0.10591414581499937 -0.053480556835604494 -0.04784434276002785 -0.2001822316700408 -0.1295315073084266
0.019851178375960427 0.48147513832493727 0.1004494031216217 0.08907050636059965 0.06019368234475013 -0.04808390100755646 -0.045534219258813916 0.08995290445827785
0.18288925346494408 -0.06480033256760716 0.0066734935122455645 -0.1948448852297092 0.16257779235691797 0.25779088060731037 0.0733260328373125 -0.32186603464459085
0.15331935048373593 0.061844280504268496 0.07884494903456044 -0.16013244205391255 0.25781032569500295 -0.05778435505848338 0.053278020708840065 0.047676339649920456
0.05954190292140791 0.14809168618667443 0.19415417879836855 0.1492502761986049 -0.09247452565338853 0.13120947946504186 -0.08750660429727684 -0.06633441972277278
0.11565973029695502 0.13574676149146991 0.03903634043440331 0.09084761493294523 -0.053122247367286865 -0.011300584659167818 0.11803002630414043 -0.06582469215947799
-0.045691715176713554 -0.014837110066394682 0.03474818408355873 -0.07833469137979418 0.09058769356368451 0.07966615390371797 0.06428771508117055 -0.03062308925339669
0.01482935189042997 0.09854887338124123 0.17679265352835277 0.1426772489814131 0.15650515762620298 0.04724902328331891 0.0754027077292456 -0.08079932109627463
0.03452761926061575 -0.24649835236878392 0.01199523148076535 -0.12401760961342047 -0.05241493323146353 0.049196266823036905 -0.03376153264062815 0.16320286592700672
-0.09617462607813332 0.04160220024218506 -0.03271532742253713 0.07816136668114967 0.08517287015023399 0.07868817434519094 0.11110940405912785 0.008861856590167536
-0.022519977004455516 0.10080253923903329 0.02656469591162095 -0.09980592121468435 -0.07188629762063847 0.006231906843001728 0.07595483795842754 0.08277350000996343
00000000: ec78 b8f3 f83c b3bf b9cd f14e db16 b8bf
00000010: 2b01 c6c3 56c6 573f 0476 55fc 004c adbf
00000020: aa50 b2ab 3cf6 823f 239a 298e d5fe a03f
00000030: 57a1 a525 39cd b93f 566f b439 6b76 b7bf
00000040: 5e88 daef 90b0 9bbf 0aba fdc0 fa8d b1bf
00000050: 343d 81e0 be1e b7bf 638b 4a27 100b 84bf
00000060: 81db f19d 484a 963f e80a 4594 1b8f 59bf
00000070: 4ab2 9878 e861 c13f 3c67 f8cc 51ac c03f
00000080: b14b 7618 b323 bb3f 33c6 9e0b ac05 79bf
00000090: d19c 48db 8918 91bf d31a 466e fe66 a13f
000000a0: 656d 8187 4f72 ad3f 71a0 ec21 803f ba3f
000000b0: 299c c3f0 2f01 a9bf 5b49 da96 249a bcbf
000000c0: d498 0b43 850e be3f a57c ad84 8bc0 643f
000000d0: fa22 307a 5e05 bebf 78a5 27f9 fdd4 cdbf
000000e0: 0391 0f9d bda8 ad3f daf2 5232 9ceb bc3f
000000f0: 07cf 3132 bc4d c43f d34f 48df 9ff9 963f
00000100: cff2 6118 bff9 b8bf 51b4 16a1 9acb bd3f
00000110: 0e48 99c7 b9f7 c13f 854b bf33 1d55 cfbf
00000120: 4a08 45ce 4846 9cbf e31a ac90 0c83 b0bf
00000130: 2a9f 5158 0f0a c03f d438 648e 1881 b2bf
00000140: e121 9eaf a2fc 90bf 1d38 1a36 9609 ae3f
00000150: 0680 929f 996d c0bf 3ba5 92f2 1f01 c4bf
00000160: dfb6 0e7f f7ff a13f 36c8 a4ca 6e29 c13f
00000170: e843 4598 27dc a3bf 1152 7917 72e6 71bf
00000180: 2ae4 b367 e790 ba3f bd3f 4e23 a30c b8bf
00000190: 0000 0000 4019 65bf 0000 0040 67db b4bf
000001a0: 0000 0000 7c07 9e3f 0000 0080 e027 b63f
000001b0: 0000 0020 3e72 b6bf 0000 0000 9734 b2bf
000001c0: 0000 0000 286b b93f 0000 0080 8f34 b9bf
000001d0: 0000 0060 2aaa b8bf 0000 0040 d707 bd3f
000001e0: 0000 0000 236a 903f 0000 0000 e882 763f
000001f0: 0000 00c0 086f bebf 0000 0080 372d b5bf
00000200: 0000 0040 2be6 b93f 0000 0000 643a 763f
00000210: 0000 0000 8c31 863f 0000 00c0 5327 ba3f
00000220: 0000 0000 f541 a03f 0000 0000 a025 673f
00000230: 0000 0020 a371 c13f 0000 0000 ee44 ba3f
00000240: 0000 0040 d6d6 b43f 0000 0080 a1ac 9cbf
00000250: 0000 0080 22a3 af3f 0000 00c0 5304 bf3f
00000260: 0000 0080 4936 a2bf 0000 0060 6be8 bfbf
00000270: 0000 0000 7477 893f 0000 0000 b24f b23f
00000280: 0000 00e0 5b99 bdbf 0000 0000 5870 ae3f
00000290: 0000 0000 f326 a93f 0000 0040 46ec b0bf
000002a0: 0000 00e0 0038 c1bf 0000 0000 5f2e abbf
000002b0: 0000 0000 83fa 943f 0000 00e0 590d c2bf
000002c0: 0000 0000 c00d b03f 0000 0000 fc65 9dbf
000002d0: 0000 0000 2933 b03f 0000 0080 91d3 bebf
000002e0: 0000 00e0 bfbe b6bf 0000 0040 17a8 b5bf
000002f0: 0000 0000 0b98 af3f 0000 0000 e067 403f
00000300: 0000 0040 bd2f a7bf 0000 0080 cf2d b3bf
00000310: 0000 00a0 cecd c0bf 0000 00c0 20cc bc3f
00000320: 44cd c18a db48 bebf 2be3 a8fe 0e9e 9fbf
00000330: 05f2 f530 f3e9 a53f 2bba ad81 6990 983f
00000340: 0edf e921 f14e bc3f 1e81 8348 f0c3 973f
00000350: 1ea1 efc6 84b7 b23f 3431 ad53 dced b5bf
00000360: 0405 687c 5c42 99bf 4799 ca3e 648d b7bf
00000370: 8808 c22d 01fe d8bf dacb 183d 722d bb3f
00000380: 19b6 e9c2 f1c8 aa3f df00 1fb4 c4c0 ba3f
00000390: 222f 47aa 7548 c2bf f98d 7580 301d bbbf
000003a0: 615d 29b5 cd61 abbf f7e6 e7be 0d7f a8bf
000003b0: f0ad 2145 929f c9bf c67b d809 7d94 c0bf
000003c0: 28b2 a507 de53 943f e654 3c19 7dd0 de3f
000003d0: c461 4f55 0db7 b93f 2060 db1f 53cd b63f
000003e0: 566a 31d2 b4d1 ae3f e346 95fc 739e a8bf
000003f0: 1a89 21dd 4250 a7bf 9f19 d44e 2707 b73f
00000400: 33fd 3541 ea68 c73f fdd5 252d c196 b0bf
00000410: 8ca0 2946 aa55 7b3f 6b5f ed5c adf0 c8bf
00000420: ad4a 9d5e 59cf c43f 8c96 5a52 a57f d03f
00000430: 554f fbb0 7ec5 b23f 5a78 1fff 7399 d4bf
00000440: 3df7 15ee f79f c33f 81c4 6bb4 0daa af3f
00000450: c2e7 8ebd 2e2f b43f c138 d348 387f c4bf
00000460: e697 5be1 f67f d03f c6ad 6436 e995 adbf
00000470: 3685 14b9 4147 ab3f 5fc5 2d7f 0869 a83f
00000480: ddfe 93bb 467c ae3f fb99 7d1a abf4 c23f
00000490: aa0d 294c 0bda c83f a592 980f a21a c33f
000004a0: 7ff8 6417 69ac b7bf fa1f 9de3 78cb c03f
000004b0: 970c a433 d566 b6bf 59f6 4ee3 4afb b0bf
000004c0: 2bf0 1647 e09b bd3f 3c67 925e 2660 c13f
000004d0: d2e5 0a3b 92fc a33f 677d 0e0f ca41 b73f
000004e0: 8ed9 43d6 d632 abbf 7760 4bcc c224 87bf
000004f0: 0b1c ec3e 3737 be3f 2b1f 1814 e3d9 b0bf
00000500: c0a6 c38c e764 a7bf 10bf 0434 eb62 8ebf
00000510: 90f2 7794 83ca a13f fe53 9e09 be0d b4bf
00000520: 24ae 464d c130 b73f 8d54 9d45 0065 b43f
00000530: c5e5 cee1 2875 b03f b220 62bb a85b 9fbf
00000540: 3047 1feb d95e 8e3f 43e6 3abc 7f3a b93f
00000550: 16e6 8944 24a1 c63f dc13 2183 3f43 c23f
00000560: 8476 d46a 5c08 c43f de22 8a23 0631 a83f
00000570: ce19 ba83 974d b33f b8c2 a5a9 43af b4bf
00000580: 6ef0 10a7 9aad a13f 448d f80c 428d cfbf
00000590: d6ba 57b7 f490 883f c1f0 6a39 9ebf bfbf
000005a0: 9331 1a50 21d6 aabf 1033 2eca 4030 a93f
000005b0: b9d1 1b0d 3149 a1bf 448e e2dd d4e3 c43f
000005c0: a0ea b579 e69e b8bf 2db2 f632 e24c a53f
000005d0: 4028 b73a 10c0 a0bf a6c9 b421 6202 b43f
000005e0: d73c cda3 e3cd b53f a900 657f e824 b43f
000005f0: e145 b678 aa71 bc3f a594 e441 2a26 823f
00000600: 8096 f612 7a0f 97bf e2a9 62f9 31ce b93f
00000610: aaa4 ac90 c633 9b3f d870 907f e18c b9bf
00000620: 80a8 4ff1 2367 b2bf 3a8e 51c1 a086 793f
00000630: 0b22 01b9 c671 b33f f1ab 84e3 a430 b53f

bias_hh f8 [200]
-0.10709877026281209 -0.0850803663359362 -0.014720090884026083 0.04750994635584859 0.1330108916065814 0.08645333514578032 0.09301833194843333 0.026509420549305104
-0.00797118152571163 0.06050217873623584 -0.2914157958014031 -0.09687713647992309 -0.10079974506837569 0.003917549197395793 0.0856286103820757 0.10487603255097057
-0.06029420521527247 -0.12402080016356498 -0.05906546647215981 0.09888797792068754 0.0914728501236038 0.18538563743334324 -0.08534402967944053 -0.04622824277092748
0.05335110496853021 -0.047649883631109786 0.004119129342019129 -0.06829074451460898 -0.12021515925172645 0.13197256306279873 -0.044493137768206674 0.037043465259628545
0.09230863480302244 -0.08409833137674981 0.11918253060372348 0.005624374492445167 -0.08658570506782619 -0.0052768999413319185 0.00450642049258338 -0.06063112206558978
-0.15894749292741212 -0.07100107636041723 -0.10989758352388913 0.048834441894277 0.07246933866495714 -0.029028693845644635 0.015039634859356143 0.02132485027724894
0.043116072123567786 0.11252242994828614 -0.109587661921978 0.04966294765472412 -0.0742032378911972 0.09615997970104218 -0.0345422625541687 -0.01895296573638916
-0.12727470695972443 -0.03180006891489029 0.10223691165447235 -0.03132437914609909 0.09259948134422302 0.08626306056976318 0.06572245061397552 0.09230263531208038
0.12611930072307587 -0.06980936229228973 -0.03126782178878784 0.0964379757642746 -0.11102404445409775 -0.014452889561653137 -0.11596238613128662 0.12556816637516022
0.06781502068042755 0.06439448893070221 0.01649080216884613 0.131569042801857 -0.04659241437911987 -0.046915195882320404 -0.032225631177425385 0.03167915344238281
-0.12746554613113403 -0.022519148886203766 0.013853207230567932 -0.043090060353279114 0.05785784125328064 -0.04816476255655289 0.13245131075382233 0.08881515264511108
0.13187582790851593 -0.01556938886642456 -0.10097120702266693 -0.13232973217964172 0.10589507222175598 -0.07821948081254959 -0.140049546957016 -0.07758749276399612
0.09785829484462738 0.06041865050792694 0.020678728818893433 -0.026004895567893982 -0.13667702925322525 0.13804242767744485 0.0031167474762448053 -0.07933986922268393
0.17198099985568785 -0.0693178656212003 -0.1489962472263602 -0.22820317458280642 0.07617121210750621 0.05406544385678108 -0.5408957803230199 0.03459191254732687
0.028111853044588825 0.012150985216979729 0.08996930239812333 -0.11572229872904663 -0.11406620465703088 -0.27715804415124795 0.045634371632914665 -0.04075362991804197
-0.16715141341280812 0.2797734823410124 -0.0773948902939247 0.010923482444355093 0.19823651972611303 0.03697526494703341 -0.12957475673535349 0.10223327922367395
-0.04822812173008229 0.12642059169062497 -0.16048487173738837 0.025708155274746434 -0.07657248591332669 0.018317716525736695 0.039710756619851934 -0.3348658225712648
0.11555782616408704 0.026733613156360452 0.005448743132460964 -0.06672738903438896 0.20261128373237955 -0.028814210369400184 -0.1826812260458062 -0.07810824373983868
-0.027837865569383367 0.1315421585415634 0.08445680707710089 0.1643686814214976 -0.01311003216412305 -0.08324770461126735 0.08980880965459695 -0.07318584697983371
-0.008403768974914618 0.017027526428870735 -0.09720421640172487 0.07839109354107664 -0.004962186127090645 0.06148499400894977 0.06652291094006572 0.1154201803509552
-0.1311783805447936 0.08501751569511437 0.07477192818985144 0.08024129047559828 0.06770019542334939 0.07774981987070557 0.12790364814181665 -0.010855283319444322
-0.01268898011411716 0.006194084004982485 0.04931079062571137 0.21664200868886396 -0.002239043437906905 0.024076749051408167 0.19072936562051898 -0.03458509818825458
0.11892404116994805 -0.07507926829667087 -0.03815578135712144 0.09349218164157681 0.07880521378220066 0.03957172601722022 -0.07952945832031169 0.08798107406356515
0.026946188483710568 -0.07086696627507258 0.08102290393837512 -0.04433637817711523 -0.04309102059302175 -0.010781347892586831 -0.004112737087531885 0.10114789200867806
-0.052387253553794796 0.11179348672400338 0.012041249351714937 0.049185797673598534 -0.072599504448279 0.05686959905606017 0.11027169064721683 0.09863800637383215
00000000: ee78 b833 d36a bbbf b9cd f1ae d3c7 b5bf
00000010: da3f 8727 9125 8ebf ff89 aa43 3953 a83f
00000020: 0b25 bb3a 8006 c13f 0ecd 1447 ce21 b63f
00000030: 57a1 a5a5 0cd0 b73f 8f42 2e19 4925 9b3f
00000040: bd10 b5df 3153 80bf dc8b 043e 24fa ae3f
00000050: 4e4f 2070 8ea6 d2bf 6551 e9a4 f0cc b8bf
00000060: 1c89 8318 03ce b9bf 47bd ee1a d90b 703f
00000070: 9864 31b1 c1eb b53f 71ce f0d9 27d9 ba3f
00000080: aa68 13cf e1de aebf 60ec b9c0 d3bf bfbf
00000090: 6e4e a42d d43d aebf 640d 23f7 b850 b93f
000000a0: b5b6 c0c3 c36a b73f 3450 f670 b7ba c73f
000000b0: 0fce 6138 1bd9 b5bf ba92 b46d 3aab a7bf
000000c0: 9c31 1706 d650 ab3f 3128 b5c7 9065 a8bf
000000d0: 3ad0 fd5c 38df 703f ec4a 4f92 807b b1bf
000000e0: 8137 78b1 6bc6 bebf 6d79 2919 7ae4 c03f
000000f0: f7c3 38f7 cdc7 a6bf e127 a46f 5cf7 a23f
00000100: 310d 9ee7 89a1 b73f af4b e9de 7787 b5bf
00000110: 1d90 320f bf82 be3f 2d90 1688 9509 773f
00000120: 1b42 9113 7b2a b6bf d2ad c10a 3b9d 75bf
00000130: 47e5 330a 5375 723f a671 c8dc 0a0b afbf
00000140: 3ec4 f335 6458 c4bf f3e3 f264 202d b2bf
00000150: 1100 257f 3f22 bcbf 016b b5f5 d300 a93f
00000160: 745b 87bf 598d b23f 59be d9aa b2b9 9dbf
00000170: 53f0 ea9e 19cd 8e3f 7cab 217a 2ed6 953f
00000180: 6ac8 674f 4f13 a63f 43c0 b11c 45ce bc3f
00000190: 0000 00e0 ef0d bcbf 0000 0000 6c6d a93f
000001a0: 0000 00c0 fbfe b2bf 0000 00c0 f09d b83f
000001b0: 0000 0000 86af a1bf 0000 0000 6868 93bf
000001c0: 0000 00a0 894a c0bf 0000 0040 1948 a0bf
000001d0: 0000 00c0 322c ba3f 0000 00c0 bf09 a0bf
000001e0: 0000 0080 99b4 b73f 0000 0000 5615 b63f
000001f0: 0000 00c0 2fd3 b03f 0000 0040 25a1 b73f
00000200: 0000 0060 ad24 c03f 0000 00c0 06df b1bf
00000210: 0000 0000 5602 a0bf 0000 00c0 28b0 b83f
00000220: 0000 0060 126c bcbf 0000 0000 7a99 8dbf
00000230: 0000 0000 b6af bdbf 0000 0020 9e12 c03f
00000240: 0000 0040 535c b13f 0000 0040 287c b03f
00000250: 0000 0000 f7e2 903f 0000 0020 41d7 c03f
00000260: 0000 0000 f6da a7bf 0000 00c0 4405 a8bf
00000270: 0000 00c0 e07f a0bf 0000 0000 4038 a03f
00000280: 0000 0080 ca50 c0bf 0000 0080 420f 97bf
00000290: 0000 0000 125f 8c3f 0000 0080 e60f a6bf
000002a0: 0000 0000 8b9f ad3f 0000 0040 0da9 a8bf
000002b0: 0000 0020 2af4 c03f 0000 0000 97bc b63f
000002c0: 0000 00a0 4ee1 c03f 0000 0000 d8e2 8fbf
000002d0: 0000 00c0 3fd9 b9bf 0000 0040 2ef0 c0bf
000002e0: 0000 0080 f01b bb3f 0000 0020 3106 b4bf
000002f0: 0000 00c0 24ed c1bf 0000 0020 c6dc b3bf
00000300: 0000 00c0 3d0d b93f 0000 0080 31ef ae3f
00000310: 0000 0000 ce2c 953f 0000 0000 07a1 9abf
00000320: 9de6 6005 a27e c1bf 9ae3 2ad0 5fab c13f
00000330: 1420 5f0f 4b88 693f 7491 941f 9e4f b4bf
00000340: 89ef f430 7903 c63f bd1f dfcd d0be b1bf
00000350: 712f 881c 4f12 c3bf 9a98 d6f9 c235 cdbf
00000360: c0fe e5e0 f47f b33f 78cd 6a42 77ae ab3f
00000370: 4404 e1aa 044f e1bf c297 31fa 07b6 a13f
00000380: 186c d385 5ac9 9c3f 2807 f8a0 9de2 883f
00000390: bba1 716b 3a08 b73f fa8d 7500 fa9f bdbf
000003a0: b0ae 945a 7133 bdbf dffc dc17 f5bc d1bf
000003b0: 2748 796b 635d a73f 1def 61e7 a8dd a4bf
000003c0: b349 0baf 3765 c5bf e654 3c09 cfe7 d13f
000003d0: 3b9e b0ca 26d0 b3bf e000 dbfe 0c5f 863f
000003e0: 955a 8c74 d05f c93f 21b9 6a03 6cee a23f
000003f0: 4562 48d7 e795 c0bf 9e19 d4ce f52b ba3f
00000400: 310b 283b 5bb1 a8bf 0215 6dc9 8c2e c03f
00000410: 01b3 cead c48a c4bf b904 9518 3d53 9a3f
00000420: aa6a c522 419a b3bf 8a68 a925 e1c1 923f
00000430: b49e f6e1 f754 a43f 5b78 1f0f 716e d5bf
00000440: 6fee 2b9c 3295 bd3f fb88 d768 0e60 9b3f
00000450: bf7c eed8 6b51 763f 8471 a6d1 0b15 b1bf
00000460: d32f b7a2 2aef c93f 705b c9ec 7881 9dbf
00000470: b1de ba31 1962 c7bf 561d 69e0 e6fe b3bf
00000480: 3902 d888 8781 9cbf fd99 7d9a 5fd6 c03f
00000490: 571b 5218 f69e b53f a392 986f 080a c53f
000004a0: e5c3 27bb 6ed9 8abf 0cc0 c5b8 b84f b5bf
000004b0: 6af3 5bcc b5fd b63f 54f6 4ec3 4ebc b2bf
000004c0: 9b7e 48c7 fe35 81bf e139 93f4 a96f 913f
000004d0: 138d 7a22 60e2 b8bf 677d 0e4f 7011 b43f
000004e0: 79cc 1eb2 3a53 74bf ec27 ed0c f67a af3f
000004f0: 0b1c ec3e a507 b13f d5e0 e74b 2d8c bd3f
00000500: ade9 3003 74ca c0bf 2668 7f39 b5c3 b53f
00000510: 47f9 3bca 4024 b33f 02ac 6176 b18a b43f
00000520: 21ae 46cd cc54 b13f 8d54 9d85 69e7 b33f
00000530: e472 e790 255f c03f 4e41 c476 4b3b 86bf
00000540: d6b8 e014 aefc 89bf ab64 aec3 f75e 793f
00000550: 4998 2792 433f a93f dc13 21e3 ecba cb3f
00000560: c95f e24a 9d57 62bf b145 1447 93a7 983f
00000570: e30c dde1 d169 c83f 6b85 4b53 23b5 a1bf
00000580: 3978 8853 ce71 be3f 871a f119 6538 b3bf
00000590: 4811 2a92 2789 a3bf 410f 9586 1aef b73f
000005a0: 33e7 f217 942c b43f 0b33 2eca be42 a43f
000005b0: d2e8 8de6 0a5c b4bf 801c c57b ed85 b63f
000005c0: 8455 2819 c897 9b3f e6a6 8466 5624 b2bf
000005d0: db6b a4c2 eabd b43f b16c 96fc 41b3 a6bf
000005e0: 6486 65b8 0610 a6bf defa d704 8814 86bf
000005f0: 6ba1 9b74 84d8 70bf 9b92 3c08 d4e4 b93f
00000600: 3e4b 7b89 80d2 aabf e2a9 6279 7f9e bc3f
00000610: 4f49 5921 15a9 883f 5f1e df80 e12e a93f
00000620: 80a8 4f91 e195 b2bf c331 2a18 031e ad3f
00000630: 0522 01f9 c33a bc3f f1ab 8423 5740 b93f
