predict_model.pkl (torch, 255175 bytes, 10 tensors)

weight_ih f8 [200, 3]
0.042923607878560685 -0.0251144805077288 0.09211770081081812 0.05462545085038416 0.02984551444610432 0.12531785893274663 0.08085233495531546 -0.05851167021458625
0.05978875108987172 -0.03115153169717972 -0.12460644485467143 0.006937257482223981 -0.017718047150118318 -0.1576965023169535 0.003676257818036026 -0.1604053699398758
0.09944838151174472 -0.05994177529809102 0.06658197272566904 0.12997668353494632 0.04714746510237157 0.06177507110537839 0.06604527085676842 0.0209915936540123
-0.0723480636310864 0.08862368311532938 0.025131106389544553 0.060936268535431715 0.07063232593189032 -0.08096389667456795 0.1290531641844443 -0.05740395491927643
-0.02234524317927399 -0.05857430397035261 -0.04001688370633323 0.02384334796044434 0.009538019110054542 0.04028016913103913 -0.010829253675460825 -0.1409560166835918
-0.12065565938766154 0.10670312704333859 -0.040374985070405975 -0.11717050676378292 0.04405235943787061 -0.08422983453196162 0.09433219238530696 0.09044752826825107
0.05545508000307425 -0.008431316403147057 -0.018995010452122853 -0.10287775067519403 0.08523888127040938 0.10912699674061521 0.023682451611426465 0.04890712260075032
-0.1597579641268613 -0.12078950954680132 0.1166837118857191 0.07675027848607759 0.02014352712034054 0.02019748957991271 0.15603951814922604 -0.14608015354164264
-0.10430593346556737 -0.03669929706971452 -0.07126113669867139 -0.16704230533015524 0.006636876732774581 0.048154859949393586 0.08508646979058272 0.1527497078443413
-0.12257166498150907 0.016305033502111876 -0.17769888491309196 -0.12150739065049232 -0.1366920196776771 -0.08147967270494678 0.08607833243176241 -0.11964389325911116
0.09254454122964371 -0.018427674965029926 0.02040127177706198 0.1277563189398946 -0.03374486187940598 -0.017519371290597597 0.028772904101771326 0.037941288684382415
0.11055932974480033 0.05840120078779087 0.11732852102131776 -0.06000706583609393 -0.0759211642748027 0.0859230568496528 0.121953775281212 0.09291280226672405
0.024078751074131113 0.0031250325895083157 0.12076850376814359 0.10160730413455223 -0.01093508532979712 0.07056008960610817 0.039063581045688994 0.0747465050315768
0.07542312579144567 -0.0686828696750217 0.1521687637106028 0.12272723858250949 -0.017569469821594724 0.07500905626754682 -0.07271560258021315 0.137779962818891
-0.03209333824244286 -0.10381242352884074 0.07207007254093149 -0.05680143938269101 0.06474917535505781 -0.03144001199521102 -0.051743203730104013 0.019038304522506853
0.04678274019655728 0.019001257874081225 -0.09450469656455966 0.020877564712791924 0.008598524350466838 -0.013003620250210523 -0.21321081403144426 0.0017734958390055182
0.08257103583400296 0.11124366703686517 -0.021013686469434033 0.03811050870363526 -0.08281331458095653 -0.0324244575642741 -0.1349956339462481 -0.1902182097031363
0.07988619708176883 -0.150245330383647 0.08181248689836931 -0.07903945534763769 -0.13393089375143288 -0.13199634068974586 -0.09692678676711053 -0.032411255430710335
-0.009859776272453517 0.07770749458496352 0.12739645113731557 0.022602147709628734 -0.11515684352264323 -0.11676503325303243 0.08918650448322296 0.06622244417667389
0.13928978145122528 -0.00299285352230072 -0.12160618603229523 -0.12466352432966232 0.01512572169303894 -0.0587334930896759 0.14110110700130463 0.06667295098304749
-0.10517324507236481 0.10348410904407501 -0.031813859939575195 0.025109171867370605 0.10927875339984894 -0.028798989951610565 0.04383811354637146 0.005988568067550659
0.05188359320163727 0.010686978697776794 -0.0477929413318634 -0.13164561986923218 -0.08656316995620728 -0.02255123108625412 0.1402866691350937 0.12235851585865021
-0.06964074075222015 0.0022689104080200195 0.06904004514217377 0.13483299314975739 -0.093398317694664 0.10870258510112762 0.12183500826358795 0.07294665277004242
0.07108351588249207 -0.12295453250408173 0.11882711946964264 0.10596048831939697 0.007733777165412903 0.061353906989097595 0.0011401176452636719 -0.10974985361099243
0.02459721267223358 -0.041273199021816254 -0.02036869525909424 0.13591305911540985 -0.022464945912361145 -0.11738812923431396 0.0004649609327316284 0.124727264046669
-0.01648128777742386 0.08214376866817474 -0.06905470043420792 0.059534162282943726 -0.0014213025569915771 -0.12867966294288635 0.0699440985918045 0.11011596024036407
0.02940729260444641 0.1403987556695938 -0.04684147238731384 -0.10935072600841522 -0.08634866774082184 -0.04051286727190018 -0.04015829414129257 -0.1296638697385788
0.05532608926296234 0.010378405451774597 -0.13542698323726654 -0.03735293447971344 0.09737895429134369 -0.06249292194843292 -0.12510886788368225 0.05901491641998291
-0.1223776638507843 0.11359743773937225 -0.05249848961830139 0.05953817069530487 0.0009283125400543213 -0.015216052532196045 0.07042986154556274 0.12990333139896393
-0.06442316621541977 0.09355685114860535 -0.07624422758817673 -0.0871971845626831 -0.030860818922519684 -0.06293492764234543 -0.027284204959869385 -0.03447612375020981
-0.05408629775047302 -0.11513307690620422 -0.13788212835788727 -0.006646439433097839 0.09314769506454468 -0.054788343608379364 0.12786518037319183 -0.13467828929424286
-0.0956488847732544 0.048891693353652954 -0.043798401951789856 0.039079710841178894 0.10427491366863251 -0.09717153757810593 0.10667738318443298 0.03207331895828247
00000000: 6626 2148 15fa a53f c134 bf41 9cb7 99bf
00000010: 357c 5d90 0695 b73f ee01 ddf9 ddf7 ab3f
00000020: 0bcb e991 d28f 9e3f 1146 dc64 6a0a c03f
00000030: 9435 7016 bdb2 b43f 8010 03dc 3df5 adbf
00000040: b409 3395 a19c ae3f b253 70e7 2fe6 9fbf
00000050: 488a 853d 35e6 bfbf 1b4d 29e0 3d6a 7c3f
00000060: 6f27 3c04 ae24 92bf 338c 1224 662f c4bf
00000070: d741 34e3 ab1d 6e3f 5a4d ffc4 2988 c4bf
00000080: c7aa 3bfa 7275 b93f 1793 2339 b0b0 aebf
00000090: 3a23 5c23 840b b13f a937 8372 13a3 c03f
000000a0: 0271 6869 b623 a83f 001b 366c fba0 af3f
000000b0: dca1 62c6 57e8 b03f aa8a f000 d27e 953f
000000c0: 1a75 3917 6785 b2bf e5a3 a1ac 0ab0 b63f
000000d0: 49b8 3800 f8bb 993f d8f9 ffe0 0933 af3f
000000e0: 4bfa eac9 f514 b23f f9bd 5fc8 0cba b4bf
000000f0: 760a cf67 d084 c03f c325 141a 0d64 adbf
00000100: 5d60 b4e2 abe1 96bf c693 e07f 73fd adbf
00000110: 5af2 9ccd 177d a4bf 8d78 defe 636a 983f
00000120: 27a3 2b41 ab88 833f 0cb9 3032 9a9f a43f
00000130: f970 02d3 a52d 86bf 6c4c eac4 d80a c2bf
00000140: e0b6 250f 4ae3 bebf e635 0869 e550 bb3f
00000150: 3663 e8b0 07ac a4bf 8f2f 9be6 e2fe bdbf
00000160: 27d0 31e6 078e a63f 4e8a a920 1690 b5bf
00000170: 663f 4191 2726 b83f 5f8a eab7 9127 b73f
00000180: c841 05b6 9b64 ac3f ebbf b521 7044 81bf
00000190: ca57 b792 6d73 93bf ead0 a23e 3256 babf
000001a0: da6e 671f 37d2 b53f 8094 1c32 bfef bb3f
000001b0: 0206 a46c 3640 983f ca2e 39b8 5a0a a93f
000001c0: 0da7 99ef f272 c4bf 7611 34b1 0fec bebf
000001d0: ae69 86d6 fbde bd3f 0d7d 0e00 e8a5 b33f
000001e0: 49f1 d438 81a0 943f 97fe d394 a6ae 943f
000001f0: b1d1 aa59 1af9 c33f 752b 0725 c1b2 c2bf
00000200: cf6b 032d cbb3 babf aeb6 6611 40ca a2bf
00000210: 67b9 987b 2b3e b2bf de81 386b a461 c5bf
00000220: 85d3 3c08 452f 7b3f ec90 40f9 c0a7 a83f
00000230: 3528 1515 3ac8 b53f bd1e d56b 4d8d c33f
00000240: 9808 834c db60 bfbf a065 9b46 44b2 903f
00000250: 0d63 9e49 d6be c6bf e8ef 10bd 1b1b bfbf
00000260: 59e5 11c5 1f7f c1bf c578 8e11 dadb b4bf
00000270: 6e4a b0c6 3a09 b63f 87c8 b670 fba0 bebf
00000280: 4f30 01c2 ffb0 b73f 59b5 4355 b4de 92bf
00000290: 2331 512c 12e4 943f fc22 daad 515a c03f
000002a0: 3434 5cac 0147 a1bf 2d59 f51a 99f0 91bf
000002b0: 1720 83e8 a476 9d3f a291 2264 0a6d a33f
000002c0: 6987 85c1 9d4d bc3f 8f83 dc1e c3e6 ad3f
000002d0: 21b3 acf0 3d09 be3f ae02 9702 3fb9 aebf
000002e0: fa6f a2c5 916f b3bf 6540 24af 0dff b53f
000002f0: b9df 74d4 5c38 bf3f f083 1d27 22c9 b73f
00000300: f452 91a1 19a8 983f 9dfc aa18 ab99 693f
00000310: fd2e 1246 afea be3f a1e9 4ab0 ef02 ba3f
00000320: 72ad f64e 2265 86bf 19d5 42dd 3910 b23f
00000330: 449c 1c46 2400 a43f 03d6 9942 9622 b33f
00000340: 0ce8 a212 ee4e b33f c1b5 0c57 3395 b1bf
00000350: 9f0d ce1b 447a c33f fb4e 0a64 0d6b bf3f
00000360: cbcf 2a29 bbfd 91bf 07ac 9223 cb33 b33f
00000370: d0ae fd5e 7d9d b2bf 32f5 2c19 c6a2 c13f
00000380: 9f6d 57bc 896e a0bf 3491 f973 7393 babf
00000390: fb69 952c 2f73 b23f 625d 0709 1415 adbf
000003a0: 14cb 97e6 6693 b03f 894d 9cbe e718 a0bf
000003b0: 8343 9fcf 157e aabf f98b 2efd c67e 933f
000003c0: 43ad 5246 e8f3 a73f bab0 9bd4 1075 933f
000003d0: 0b2d 10b5 7531 b8bf 4871 a5a6 ed60 953f
000003e0: 4b6d 0867 1a9c 813f c651 a25d a4a1 8abf
000003f0: 6494 b5f0 7d4a cbbf 8221 33a8 940e 5d3f
00000400: bafe 801a 6023 b53f 9879 cf07 777a bc3f
00000410: e353 9ea0 9c84 95bf fa35 0879 3883 a33f
00000420: f86e ccdd 4033 b5bf 6a7f a841 f099 a0bf
00000430: 3772 7374 8947 c1bf 7caa e3fe 1159 c8bf
00000440: c235 defb 6b73 b43f eeee 2f2e 3d3b c3bf
00000450: 5a07 a2c3 a9f1 b43f 41cf cf03 ee3b b4bf
00000460: f510 4bc4 a524 c1bf 0421 3a8f 41e5 c0bf
00000470: 2867 45a3 31d0 b8bf a1c4 3144 3598 a0bf
00000480: 0fa9 16c5 5c31 84bf 0982 e56b a3e4 b33f
00000490: 1070 a1e3 864e c03f 38ca ed74 0425 973f
000004a0: a920 d73c eb7a bdbf 475c 232f 50e4 bdbf
000004b0: 0000 0040 edd4 b63f 0000 0040 f4f3 b03f
000004c0: 0000 0060 3fd4 c13f 0000 0000 7884 68bf
000004d0: 0000 0040 9521 bfbf 0000 00e0 f2e9 bfbf
000004e0: 0000 0000 3cfa 8e3f 0000 0000 5112 aebf
000004f0: 0000 00e0 990f c23f 0000 0080 7a11 b13f
00000500: 0000 0040 a2ec babf 0000 0040 ef7d ba3f
00000510: 0000 0000 e849 a0bf 0000 0000 38b6 993f
00000520: 0000 0040 b1f9 bb3f 0000 0080 7b7d 9dbf
00000530: 0000 0000 f371 a63f 0000 0000 7887 783f
00000540: 0000 0080 7c90 aa3f 0000 0000 0ee3 853f
00000550: 0000 0000 5178 a8bf 0000 0080 c3d9 c0bf
00000560: 0000 0000 0129 b6bf 0000 0080 ab17 97bf
00000570: 0000 00e0 e9f4 c13f 0000 0040 e352 bf3f
00000580: 0000 00c0 f9d3 b1bf 0000 0000 4096 623f
00000590: 0000 00c0 9bac b13f 0000 0020 3542 c13f
000005a0: 0000 00c0 f3e8 b7bf 0000 00c0 eed3 bb3f
000005b0: 0000 0040 9430 bf3f 0000 00c0 a1ac b23f
000005c0: 0000 0080 8732 b23f 0000 00c0 f279 bfbf
000005d0: 0000 0040 746b be3f 0000 0000 3a20 bb3f
000005e0: 0000 0000 74ad 7f3f 0000 0080 c769 af3f
000005f0: 0000 0000 00ae 523f 0000 0000 9118 bcbf
00000600: 0000 0000 0330 993f 0000 00c0 c221 a5bf
00000610: 0000 0000 88db 94bf 0000 0060 9965 c13f
00000620: 0000 0000 0d01 97bf 0000 0000 260d bebf
00000630: 0000 0000 c078 3e3f 0000 0040 20ee bf3f
00000640: 0000 0080 78e0 90bf 0000 00c0 5f07 b53f
00000650: 0000 00a0 91ad b1bf 0000 0000 437b ae3f
00000660: 0000 0000 6049 57bf 0000 0040 9378 c0bf
00000670: 0000 0040 dbe7 b13f 0000 0040 8f30 bc3f
00000680: 0000 0000 f21c 9e3f 0000 0020 96f8 c13f
00000690: 0000 0000 9bfb a7bf 0000 00c0 68fe bbbf
000006a0: 0000 0040 f21a b6bf 0000 0040 1abe a4bf
000006b0: 0000 00c0 a08f a4bf 0000 0060 d398 c0bf
000006c0: 0000 0080 b353 ac3f 0000 0000 4641 853f
000006d0: 0000 00e0 ab55 c1bf 0000 0080 ec1f a3bf
000006e0: 0000 00c0 d3ed b83f 0000 0080 12ff afbf
000006f0: 0000 0040 9103 c0bf 0000 0000 3437 ae3f
00000700: 0000 0080 2454 bfbf 0000 00c0 b814 bd3f
00000710: 0000 0000 15e1 aabf 0000 0080 c97b ae3f
00000720: 0000 0000 406b 4e3f 0000 0000 9829 8fbf
00000730: 0000 0000 b107 b23f 0000 0020 aca0 c03f
00000740: 0000 0060 097e b0bf 0000 0080 57f3 b73f
00000750: 0000 00e0 bd84 b3bf 0000 0000 8e52 b6bf
00000760: 0000 0080 fa99 9fbf 0000 00e0 801c b0bf
00000770: 0000 0000 64f0 9bbf 0000 00c0 daa6 a1bf
00000780: 0000 0000 33b1 abbf 0000 0080 5c79 bdbf
00000790: 0000 0020 1fa6 c1bf 0000 0000 4c39 7bbf
000007a0: 0000 0000 87d8 b73f 0000 00c0 370d acbf
000007b0: 0000 00e0 e25d c03f 0000 0060 233d c1bf
000007c0: 0000 0000 727c b8bf 0000 0000 5508 a93f
000007d0: 0000 0080 be6c a6bf 0000 0080 4102 a43f
000007e0: 0000 00c0 c2b1 ba3f 0000 00e0 3be0 b8bf
000007f0: 0000 0080 354f bb3f 0000 0000 ea6b a03f

weight_hh f8 [200, 50]
-0.1266343742609024 0.08086645603179932 0.10838225483894348 -0.13260701298713684 -0.11985984444618225 -0.14059363305568695 0.0870293378829956 0.04682919383049011
0.13189928233623505 0.08108294010162354 -0.05027967691421509 0.04996190965175629 -0.0013859421014785767 0.09235711395740509 -0.13889893889427185 -0.002079218626022339
0.07186233997344971 0.0695180594921112 -0.04591142386198044 0.08757878839969635 -0.10339467227458954 0.13026849925518036 0.006246015429496765 0.11906762421131134
0.07024884223937988 -0.02330196648836136 -0.0978977382183075 0.09952695667743683 0.11582298576831818 0.059203341603279114 -0.09360034763813019 -0.08632627129554749
-0.10118547081947327 0.06807328760623932 0.03617163002490997 -0.03871937096118927 -0.12624292075634003 -0.11690197885036469 0.06541173160076141 -0.026007644832134247
0.0821460634469986 -0.12723146378993988 -0.05079961568117142 0.11608318984508514 0.014538407325744629 0.03543670475482941 0.0020355433225631714 -0.0109005868434906
0.13132964074611664 0.014143988490104675 0.09721207618713379 0.011040344834327698 0.12103493511676788 0.11497388780117035 -0.14011861383914948 0.07862843573093414
0.04463593661785126 0.11823193728923798 0.0029593706130981445 -0.035121358931064606 -0.10919788479804993 -0.11855465918779373 -0.13387560844421387 0.045407071709632874
0.03534308075904846 0.0911775678396225 0.12445200979709625 0.020908266305923462 0.0813031941652298 -0.05067428946495056 -0.020440056920051575 0.03146371245384216
-0.06288059055805206 0.04942522943019867 -0.10040408372879028 -0.07406381517648697 0.08777022361755371 0.048290327191352844 -0.13472804427146912 -0.07545933127403259
-0.08627939224243164 -0.13389286398887634 -0.024199895560741425 0.03577275574207306 0.0751846581697464 0.036187052726745605 0.05873499810695648 0.06593398749828339
0.005234137177467346 0.09935572743415833 -0.1049380898475647 0.03174547851085663 -0.1346762478351593 -0.018131695687770844 -0.09151620417833328 -0.13066506385803223
0.03242276608943939 -0.0030888915061950684 -0.10774850845336914 0.01712377369403839 0.023642197251319885 -0.12216773629188538 -0.021875344216823578 0.06505785882472992
0.09808811545372009 0.0249958336353302 -0.06899590790271759 0.0659254640340805 -0.039868034422397614 -0.07731705158948898 0.046407490968704224 0.07985091209411621
0.07863420248031616 -0.13452839851379395 0.010618716478347778 -0.02670508623123169 -0.10698418319225311 -0.05633419007062912 -0.07665013521909714 -0.10887166857719421
-0.0841059610247612 -0.05747262388467789 0.027522623538970947 0.11666776239871979 -0.10447022318840027 -0.013480708003044128 0.1323613077402115 0.1070602685213089
-0.04296524077653885 -0.015545263886451721 -0.06009324640035629 -0.058122701942920685 -0.07667744159698486 -0.01382516324520111 -0.03953538089990616 -0.10640464723110199
0.052035436034202576 0.0034720897674560547 0.003855884075164795 0.009137347340583801 -0.011414512991905212 0.0914362221956253 -0.028138555586338043 0.12528647482395172
-0.09888416528701782 -0.0028200149536132812 -0.00525781512260437 0.005830109119415283 0.0936257541179657 -0.09677235782146454 -0.07656852155923843 0.029470190405845642
-0.13976681232452393 0.05261954665184021 -0.023460552096366882 -0.10190527141094208 -0.06340792775154114 -0.04160907119512558 0.09915532171726227 0.0412028431892395
-0.11581873893737793 0.13059739768505096 0.12048868834972382 0.11075834929943085 0.10524150729179382 -0.13834808766841888 -0.10290065407752991 -0.1189466267824173
-0.003529682755470276 -0.14023642241954803 0.1085941344499588 -0.04230663925409317 0.1322913020849228 0.003581121563911438 -0.1340816617012024 -0.08605553954839706
0.11306555569171906 -0.023099273443222046 -0.012493014335632324 0.007165059447288513 0.004320800304412842 -0.06851918250322342 -0.04037328064441681 -0.023237258195877075
0.12721513211727142 -0.06985284388065338 0.10781964659690857 0.14094926416873932 -0.03880595415830612 0.06651151180267334 -0.08192280679941177 0.0034973472356796265
0.04280400276184082 -0.0743098184466362 -0.058606237173080444 0.07778087258338928 0.060123100876808167 0.0920889675617218 0.0061457157135009766 0.021699681878089905
-0.1351536512374878 -0.07118068635463715 0.10974644124507904 0.08413028717041016 -0.019605889916419983 -0.12075932323932648 0.07899299263954163 -0.03612401336431503
0.12348826229572296 0.017299428582191467 -0.06886576116085052 -0.09237967431545258 0.08372139930725098 0.028508082032203674 -0.00809025764465332 -0.08630311489105225
0.11332903802394867 0.024934083223342896 -0.02423209697008133 0.08241517841815948 0.11431382596492767 -0.030016176402568817 0.09128780663013458 -0.09397496283054352
0.09549853205680847 -0.023519344627857208 0.13196994364261627 -0.0397602915763855 0.03602738678455353 0.0958327203989029 -0.023016341030597687 0.10445484519004822
0.12024031579494476 -0.04831098020076752 -0.08793375641107559 -0.10900819301605225 -0.02381165325641632 0.118056520819664 0.07227708399295807 -0.07857818156480789
-0.08714429289102554 -0.09309570491313934 -0.06498987227678299 -0.10357014834880829 -0.1318405717611313 -0.00255797803401947 -0.13622435927391052 -0.09427426010370255
0.051711127161979675 0.1310320645570755 -0.01392945647239685 0.09539325535297394 0.01936967670917511 -0.000669524073600769 -0.06786605715751648 -0.04184926301240921
00000000: 0000 0020 8e35 c0bf 0000 0000 aab3 b43f
00000010: 0000 0080 f0be bb3f 0000 0040 44f9 c0bf
00000020: 0000 0080 22af bebf 0000 00e0 f8fe c1bf
00000030: 0000 0000 8e47 b63f 0000 0000 fff9 a73f
00000040: 0000 0060 13e2 c03f 0000 0000 dac1 b43f
00000050: 0000 0000 42be a9bf 0000 0080 9b94 a93f
00000060: 0000 0000 10b5 56bf 0000 0040 b7a4 b73f
00000070: 0000 00c0 70c7 c1bf 0000 0000 7008 61bf
00000080: 0000 0000 9265 b23f 0000 0080 efcb b13f
00000090: 0000 00c0 b381 a7bf 0000 0040 906b b63f
000000a0: 0000 00c0 1278 babf 0000 0060 a3ac c03f
000000b0: 0000 0000 6c95 793f 0000 0040 377b be3f
000000c0: 0000 0000 d4fb b13f 0000 0080 78dc 97bf
000000d0: 0000 0080 d30f b9bf 0000 0040 997a b93f
000000e0: 0000 0040 93a6 bd3f 0000 0080 e64f ae3f
000000f0: 0000 0040 31f6 b7bf 0000 0080 7a19 b6bf
00000100: 0000 0080 4ae7 b9bf 0000 0040 406d b13f
00000110: 0000 0080 1685 a23f 0000 0080 06d3 a3bf
00000120: 0000 0060 ba28 c0bf 0000 00c0 49ed bdbf
00000130: 0000 00c0 d2be b03f 0000 0080 bfa1 9abf
00000140: 0000 0040 8607 b53f 0000 00e0 1e49 c0bf
00000150: 0000 0040 6802 aabf 0000 00c0 a0b7 bd3f
00000160: 0000 0000 50c6 8d3f 0000 0080 c224 a23f
00000170: 0000 0000 d8ac 603f 0000 0000 0c53 86bf
00000180: 0000 00e0 68cf c03f 0000 0000 86f7 8c3f
00000190: 0000 0000 e4e2 b83f 0000 0000 529c 863f
000001a0: 0000 0040 25fc be3f 0000 00c0 ed6e bd3f
000001b0: 0000 0020 68ef c1bf 0000 0040 fe20 b43f
000001c0: 0000 0080 85da a63f 0000 00c0 7244 be3f
000001d0: 0000 0000 403e 683f 0000 0040 6dfb a1bf
000001e0: 0000 0080 64f4 bbbf 0000 0020 9959 bebf
000001f0: 0000 0000 d622 c1bf 0000 0080 983f a73f
00000200: 0000 0000 7d18 a23f 0000 00c0 6957 b73f
00000210: 0000 0040 16dc bf3f 0000 0000 fa68 953f
00000220: 0000 0040 49d0 b43f 0000 0000 fbf1 a9bf
00000230: 0000 0000 3dee 94bf 0000 0000 031c a03f
00000240: 0000 0040 f118 b0bf 0000 0080 434e a93f
00000250: 0000 0000 15b4 b9bf 0000 00a0 d8f5 b2bf
00000260: 0000 0000 1c78 b63f 0000 0080 82b9 a83f
00000270: 0000 00c0 c43e c1bf 0000 0080 4d51 b3bf
00000280: 0000 0000 6816 b6bf 0000 00c0 6623 c1bf
00000290: 0000 0080 dbc7 98bf 0000 0080 ce50 a23f
000002a0: 0000 0040 4d3f b33f 0000 0000 1c87 a23f
000002b0: 0000 0080 8312 ae3f 0000 00c0 0ce1 b03f
000002c0: 0000 0000 6470 753f 0000 0080 606f b93f
000002d0: 0000 0000 39dd babf 0000 0080 f140 a03f
000002e0: 0000 0040 123d c1bf 0000 0080 1d91 92bf
000002f0: 0000 0020 9b6d b7bf 0000 0000 a2b9 c0bf
00000300: 0000 0080 b799 a03f 0000 0000 e04d 69bf
00000310: 0000 0000 6895 bbbf 0000 0000 e588 913f
00000320: 0000 0000 a935 983f 0000 0080 6246 bfbf
00000330: 0000 0080 7d66 96bf 0000 00c0 a1a7 b03f
00000340: 0000 0080 4d1c b93f 0000 0000 8298 993f
00000350: 0000 0040 b7a9 b1bf 0000 00c0 7de0 b03f
00000360: 0000 0040 9569 a4bf 0000 00e0 0ccb b3bf
00000370: 0000 0000 b9c2 a73f 0000 0000 1c71 b43f
00000380: 0000 0000 5f21 b43f 0000 0000 3a38 c1bf
00000390: 0000 0000 44bf 853f 0000 0000 9458 9bbf
000003a0: 0000 00c0 5063 bbbf 0000 00c0 d5d7 acbf
000003b0: 0000 00e0 579f b3bf 0000 0080 03df bbbf
000003c0: 0000 00e0 f787 b5bf 0000 0040 0d6d adbf
000003d0: 0000 0000 e42e 9c3f 0000 0040 f0dd bd3f
000003e0: 0000 0080 8fbe babf 0000 0000 c69b 8bbf
000003f0: 0000 0020 37f1 c03f 0000 0040 4d68 bb3f
00000400: 0000 0040 8aff a5bf 0000 0000 32d6 8fbf
00000410: 0000 00c0 8ac4 aebf 0000 0040 42c2 adbf
00000420: 0000 0000 22a1 b3bf 0000 0000 5e50 8cbf
00000430: 0000 0040 fb3d a4bf 0000 00c0 553d bbbf
00000440: 0000 0080 63a4 aa3f 0000 0000 8071 6c3f
00000450: 0000 0000 6096 6f3f 0000 0000 9ab6 823f
00000460: 0000 0000 7e60 87bf 0000 0040 5d68 b73f
00000470: 0000 0080 5ad0 9cbf 0000 0020 6309 c03f
00000480: 0000 0000 7950 b9bf 0000 0000 001a 67bf
00000490: 0000 0000 3889 75bf 0000 0000 50e1 773f
000004a0: 0000 0080 dbf7 b73f 0000 00c0 12c6 b8bf
000004b0: 0000 00a0 fe99 b3bf 0000 0000 6f2d 9e3f
000004c0: 0000 0000 e1e3 c1bf 0000 0000 f3f0 aa3f
000004d0: 0000 0000 0b06 98bf 0000 00c0 7616 babf
000004e0: 0000 0080 803b b0bf 0000 00c0 c84d a5bf
000004f0: 0000 0040 3e62 b93f 0000 0000 8a18 a53f
00000500: 0000 0000 4ca6 bdbf 0000 0060 6ab7 c03f
00000510: 0000 00c0 58d8 be3f 0000 00c0 a85a bc3f
00000520: 0000 0080 1bf1 ba3f 0000 00e0 63b5 c1bf
00000530: 0000 0080 b257 babf 0000 0040 4973 bebf
00000540: 0000 0000 48ea 6cbf 0000 0060 44f3 c1bf
00000550: 0000 0040 d3cc bb3f 0000 0040 37a9 a5bf
00000560: 0000 00e0 ebee c03f 0000 0000 2856 6d3f
00000570: 0000 0080 9629 c1bf 0000 0060 bc07 b6bf
00000580: 0000 0040 ddf1 bc3f 0000 0000 56a7 97bf
00000590: 0000 0000 f095 89bf 0000 0000 1c59 7d3f
000005a0: 0000 0000 b0b2 713f 0000 0020 798a b1bf
000005b0: 0000 0080 ceab a4bf 0000 0000 82cb 97bf
000005c0: 0000 00e0 9548 c03f 0000 0040 e0e1 b1bf
000005d0: 0000 0080 119a bb3f 0000 0020 a00a c23f
000005e0: 0000 00c0 5fde a3bf 0000 0000 e606 b13f
000005f0: 0000 00a0 e4f8 b4bf 0000 0000 78a6 6c3f
00000600: 0000 0000 68ea a53f 0000 00e0 f705 b3bf
00000610: 0000 0000 a301 aebf 0000 0080 72e9 b33f
00000620: 0000 0080 74c8 ae3f 0000 0080 2493 b73f
00000630: 0000 0000 402c 793f 0000 0000 7138 963f
00000640: 0000 0000 b74c c1bf 0000 00c0 e538 b2bf
00000650: 0000 00c0 5718 bc3f 0000 0000 9089 b53f
00000660: 0000 0000 9113 94bf 0000 0040 15ea bebf
00000670: 0000 0080 e238 b43f 0000 00c0 d87e a2bf
00000680: 0000 0040 ed9c bf3f 0000 0000 f1b6 913f
00000690: 0000 00c0 2fa1 b1bf 0000 00c0 31a6 b7bf
000006a0: 0000 0000 c46e b53f 0000 0000 3931 9d3f
000006b0: 0000 0000 a091 80bf 0000 0000 f617 b6bf
000006c0: 0000 00c0 2103 bd3f 0000 0000 5288 993f
000006d0: 0000 0080 4cd0 98bf 0000 0040 2919 b53f
000006e0: 0000 00c0 ab43 bd3f 0000 0080 8fbc 9ebf
000006f0: 0000 0040 a35e b73f 0000 0040 be0e b8bf
00000700: 0000 0080 9772 b83f 0000 0080 7415 98bf
00000710: 0000 0020 64e4 c03f 0000 0000 765b a4bf
00000720: 0000 0080 2e72 a23f 0000 0040 7e88 b83f
00000730: 0000 0080 9891 97bf 0000 0080 8dbd ba3f
00000740: 0000 00c0 11c8 be3f 0000 0080 37bc a8bf
00000750: 0000 00a0 d382 b6bf 0000 0000 f6e7 bbbf
00000760: 0000 0000 1562 98bf 0000 00c0 f338 be3f
00000770: 0000 0040 c080 b23f 0000 0020 b31d b4bf
00000780: 0000 00a0 164f b6bf 0000 00c0 1ed5 b7bf
00000790: 0000 0020 2da3 b0bf 0000 00c0 9283 babf
000007a0: 0000 00e0 26e0 c0bf 0000 0000 78f4 64bf
000007b0: 0000 00c0 cc6f c1bf 0000 00a0 5b22 b8bf
000007c0: 0000 0080 e179 aa3f 0000 00a0 a8c5 c03f
000007d0: 0000 0000 0c87 8cbf 0000 0040 b16b b83f
000007e0: 0000 0000 a5d5 933f 0000 0000 60f0 45bf
000007f0: 0000 0080 ab5f b1bf 0000 0040 446d a5bf

bias_ih f8 [200]
0.12920019620079615 0.21022669026481056 0.08921272299183118 0.05092746910266212 -0.08529765420684787 0.05281059945164933 -0.051986606125930986 0.15722221294087577
-0.051307900271555996 0.11451666940431668 -0.08667401873462924 -0.09654763379213953 -0.10925830702559464 -0.006493953581614945 0.06075593448246811 0.014579641239073947
-0.02669217916703793 -0.08659828124325152 0.026570408945800865 -0.07524681151421017 0.08849688856083414 -0.058600347104634805 -0.009119960691449281 0.08793506655375878
0.02422847175277603 -0.08830924321775573 0.024419292366061045 -0.12760510990513468 0.02747962037371145 0.10554363010435407 0.05411026165572755 -0.05947550014942813
0.04821030160492624 0.13859073920139492 -0.02872210694265265 -0.0972249525974984 -0.03214940630436106 0.05563715806559474 0.07497507335464712 -0.026463231163311438
-0.07146258903520629 -0.028913004348218765 -0.06904762598552189 -0.07870937204094153 0.10801233760977759 0.1250129170143349 -0.09024722889435366 0.011064168274163592
0.13670013548066728 0.09315092583677666 0.1201079934835434 -0.13844819366931915 -0.02396918088197708 0.12002144753932953 -0.11528326570987701 0.0016612112522125244
0.0024805963039398193 0.021095573902130127 -0.051176995038986206 0.07957346737384796 0.12866269052028656 0.10806532204151154 0.028772756457328796 0.04591864347457886
-0.1274750530719757 0.009924381971359253 0.12187646329402924 -0.09943556785583496 0.0964495837688446 0.08220979571342468 -0.06057075411081314 -0.14003831148147583
0.013218343257904053 0.1280432790517807 0.05878433585166931 -0.13326793909072876 0.007160887122154236 -0.08553694933652878 0.03126637637615204 0.07750822603702545
0.06864766776561737 -0.06446897238492966 0.027813449501991272 -0.12623631954193115 -0.00040496885776519775 0.08475540578365326 0.06328850984573364 0.01595287024974823
0.08309836685657501 0.07916814088821411 0.04889902472496033 0.0041549354791641235 -0.07976903021335602 0.0872679352760315 -0.01848461478948593 0.05128796398639679
-0.06729523837566376 0.033365219831466675 0.042186200618743896 0.08733226358890533 0.040314630808998345 0.09947455671875652 -0.1281627661020056 0.038301148684047874
0.0742655090082498 -0.05888224682819772 -0.03963017884880627 -0.1260871475614232 -0.0025401222041843523 -0.12458836466519972 -0.017217831115664623 0.012800483621174134
-0.018302744610626115 0.07560636225341863 0.1301894964330956 0.18475527728636693 0.1601713295369318 -0.03353620099381651 -0.15992468760356826 0.1001969293939906
0.11465425268444515 0.0453953093703239 -0.08089649622648966 -0.22110246452447974 -0.019675750215523816 0.2653439822797939 0.04278540923742848 0.14358317422378086
-0.051209017298115736 0.1102365177974827 -0.06901094589489605 0.19359337853539646 0.037258981191880876 0.2524420214170823 -0.1842053866901152 0.01055404080966036
-0.0012133068443441154 0.04373035867763487 -0.0491638254429301 0.04972039891765069 0.22132781567734222 0.05999155515106447 -0.22118676011685687 0.04051200631651091
0.011386311262391003 0.11891900160602095 -0.14012067665732592 -0.07970462711465282 0.12426969167601076 0.07918236277241 0.09844786455754617 0.010068266368778656
-0.1081306492650764 0.20944188712063108 0.028018365831914933 0.028431000259551607 -0.07308110029374557 0.04551447611871135 0.12278610422830288 0.00816314013646984
0.026576761711878866 -0.016973412651293797 0.14189436656136514 0.05465051172475319 -0.11184996360242067 0.0612699682410644 0.008107573909523087 -0.12723169544623225
0.015795196510619138 -0.07300886535624256 -0.044653084197610056 0.03782793108346042 0.10091507457839656 0.0410067398136708 -0.021209099807467217 0.10325214774316567
0.03762200654228681 0.14416655129436387 0.03925693214854004 -0.07129793263826542 0.15851892969536577 0.1887897667963009 0.10785285327685636 0.16687519970522896
-0.02861120975640513 -0.125485931300426 -0.10415704859785209 0.06848701330228342 0.054278880043098145 -0.12964389619201933 0.04630965072624044 0.038326518566375166
0.011607622460158316 -0.05070438957080947 -0.007938350272089056 -0.09837539272726281 0.10501672178957389 0.0072227197296574315 -0.012369840370253906 -0.09128357691193223
00000000: a4db a8cc a189 c03f ec82 b74b b5e8 ca3f
00000010: e313 a31f a5d6 b63f f228 874c 2a13 aa3f
00000020: 1872 3e2b 11d6 b5bf 8ed1 0dab fd09 ab3f
00000030: f124 480a fd9d aabf 6795 6483 db1f c43f
00000040: c5b1 6273 0745 aabf ee39 f0e5 f650 bd3f
00000050: bacc e0bb 4430 b6bf 6bb7 a481 58b7 b8bf
00000060: f4c2 7d37 5af8 bbbf 5d92 1364 6799 7abf
00000070: b5bd 47df 661b af3f 7950 7952 eedb 8d3f
00000080: a25a 53d2 3155 9bbf 0f5f d411 4e2b b6bf
00000090: 9eaf daf5 4535 9b3f 6ef1 9402 6043 b3bf
000000a0: 4fa2 2a6a bba7 b63f e182 b25c dd00 aebf
000000b0: 47de 4867 7cad 82bf 3d1d 059b e982 b63f
000000c0: aead 3d37 59cf 983f 7305 8e3f 6f9b b6bf
000000d0: ee2e 6af8 5e01 993f 3e2a ec3e 5d55 c0bf
000000e0: 6510 3f1b 9e23 9c3f 276d 9947 e804 bb3f
000000f0: d4f2 6018 57b4 ab3f cd2d 1ca0 9273 aebf
00000100: a168 7249 05af a83f 9e00 3362 57bd c13f
00000110: 81b0 f6f7 5369 9dbf 7feb c207 bce3 b8bf
00000120: e57a 5311 e375 a0bf bb10 ab3c 797c ac3f
00000130: 06cb 1200 9131 b33f 2c57 9261 2d19 9bbf
00000140: df2f cb4a 5f4b b2bf e437 6be0 5e9b 9dbf
00000150: dc68 79ef 1aad b1bf 60f6 cd22 4c26 b4bf
00000160: a937 9951 b2a6 bb3f 8bba 135b 6c00 c03f
00000170: 70e7 a740 711a b7bf cfe7 2887 cfa8 863f
00000180: 2cc6 9fd9 637f c13f c1a2 0f34 bdd8 b73f
00000190: 0000 00c0 65bf be3f 0000 00a0 abb8 c1bf
000001a0: 0000 0080 608b 98bf 0000 00c0 b9b9 be3f
000001b0: 0000 0040 3483 bdbf 0000 0000 a037 5b3f
000001c0: 0000 0000 3052 643f 0000 0000 149a 953f
000001d0: 0000 0000 df33 aabf 0000 0040 ed5e b43f
000001e0: 0000 00e0 0478 c03f 0000 0040 2baa bb3f
000001f0: 0000 0000 9b76 9d3f 0000 0000 a682 a73f
00000200: 0000 0040 1a51 c0bf 0000 0000 3c53 843f
00000210: 0000 00c0 4b33 bf3f 0000 0000 9c74 b9bf
00000220: 0000 0080 ebb0 b83f 0000 0080 b30b b53f
00000230: 0000 0040 2103 afbf 0000 0080 c6ec c1bf
00000240: 0000 0000 3812 8b3f 0000 00e0 b863 c03f
00000250: 0000 0000 fb18 ae3f 0000 0080 ec0e c1bf
00000260: 0000 0000 bc54 7d3f 0000 00e0 bfe5 b5bf
00000270: 0000 0080 2502 a03f 0000 0040 94d7 b33f
00000280: 0000 00c0 e492 b13f 0000 00e0 0981 b0bf
00000290: 0000 0000 217b 9c3f 0000 0000 8328 c0bf
000002a0: 0000 0000 408a 3abf 0000 00c0 87b2 b53f
000002b0: 0000 0000 ad33 b03f 0000 0000 f355 903f
000002c0: 0000 0040 ef45 b53f 0000 0000 5d44 b43f
000002d0: 0000 0000 4b09 a93f 0000 0000 c404 713f
000002e0: 0000 0040 be6b b4bf 0000 0000 3157 b63f
000002f0: 0000 0080 a1ed 92bf 0000 0080 6a42 aa3f
00000300: 0000 00c0 423a b1bf 0000 0000 3f15 a13f
00000310: 0000 0000 6e99 a53f 0000 0040 685b b63f
00000320: 02fb bf89 1ea4 a43f d222 e41f 2a77 b93f
00000330: a48b 7c34 a367 c0bf 7f93 fe49 359c a33f
00000340: 2046 697c 1003 b33f 1a5c e258 d025 aebf
00000350: c135 2e24 684a a4bf 5272 9ca7 9f23 c0bf
00000360: 5820 6fb9 05cf 64bf cffb b2e7 05e5 bfbf
00000370: d506 3316 8da1 91bf fc18 35d4 2337 8a3f
00000380: 4864 1e66 f4bd 92bf 6e7a 3f45 f05a b33f
00000390: cf3e bba6 0caa c03f 76ab da98 0fa6 c73f
000003a0: 5819 0f7f 7e80 c43f c344 002d a82b a1bf
000003b0: a848 8a83 6978 c4bf bf24 e886 81a6 b93f
000003c0: de83 a029 fb59 bd3f e351 46d2 0d3e a73f
000003d0: d95c a7fd a1b5 b4bf 4a4c 19e7 154d ccbf
000003e0: 01bd cc3e e125 94bf 6d41 8553 65fb d03f
000003f0: 236a d71a f8e7 a53f 6404 c6f6 ee60 c23f
00000400: 6a85 1c7d 1138 aabf 42de c3de 7538 bc3f
00000410: 3542 af8b b3aa b1bf f70d c4f6 aac7 c83f
00000420: e11e 67f3 9b13 a33f 0ad7 8794 0228 d03f
00000430: c860 cac7 0a94 c7bf b4f3 f160 5b9d 853f
00000440: eca8 da4d fae0 53bf d1bf b958 d363 a63f
00000450: 03e7 d83c 002c a9bf 823c 97be f374 a93f
00000460: 22c0 0349 7854 cc3f d0eb d18e 36b7 ae3f
00000470: df4a 8106 d94f ccbf b713 735c fdbd a43f
00000480: 4dce f3d3 b451 873f 3655 c5c6 7971 be3f
00000490: 1649 de6d 79ef c1bf 6c1c ccbe 8567 b4bf
000004a0: 88e9 a175 23d0 bf3f d20a 879a 4b45 b43f
000004b0: 20bd a216 e133 b93f 3a25 40d6 ab9e 843f
000004c0: 7eeb 4942 73ae bbbf bd3d cce3 fdce ca3f
000004d0: 95e3 bdb3 d8b0 9c3f c6b7 3a21 041d 9d3f
000004e0: 26a3 b767 71b5 b2bf f94f d964 ac4d a73f
000004f0: bc55 10fe e86e bf3f 5bb5 591f d6b7 803f
00000500: 085f 8b49 f036 9b3f 1a8d f470 7a61 91bf
00000510: c510 ef37 9829 c23f ac8c 22e1 26fb ab3f
00000520: 142f bbff 32a2 bcbf 7808 a5fb c65e af3f
00000530: 7797 5426 b49a 803f c064 7ad1 2049 c0bf
00000540: 07bb c9b1 9d2c 903f cbeb 0581 b5b0 b2bf
00000550: 81aa 96e0 c4dc a6bf a5f2 c1bd 2e5e a33f
00000560: 49d4 fc00 92d5 b93f d6a1 d4dc d5fe a43f
00000570: 41e3 3398 d6b7 95bf c574 cc95 bb6e ba3f
00000580: a804 6b0f 3143 a33f 5542 7eaf 0c74 c23f
00000590: 3944 700f 7c19 a43f ae29 f4d0 9440 b2bf
000005a0: 9954 6b29 594a c43f 7dd3 1a59 432a c83f
000005b0: f1b8 9a9d 3e9c bb3f b2ab 9fa2 2a5c c53f
000005c0: 509f cfc8 414c 9dbf 328f 8549 ec0f c0bf
000005d0: 152b 604d 09aa babf 9d82 556a 5d88 b13f
000005e0: 1517 4cfd 70ca ab3f aca7 22d3 2b98 c0bf
000005f0: 487e b706 e6b5 a73f f3cd 9f8f 889f a33f
00000600: 3239 ceb6 bcc5 873f 40c7 f0fd ecf5 a9bf
00000610: 602a 6c56 fb41 80bf f0a7 7e36 212f b9bf
00000620: c08d 9e39 60e2 ba3f bdce 6e10 9295 7d3f
00000630: 019e c6de 5b55 89bf 80a7 7f49 5c5e b7bf

bias_hh f8 [200]
-0.02037909037452119 -0.03572643747700312 0.04350573561084975 0.06531337049416829 -0.03418288641700718 -0.11786880587996233 -0.1388712239314119 0.09393635550183473
-0.01644267740025243 -0.005026748883914321 -0.09115382187956103 -0.09322374352333689 -0.011472387120885738 -0.12912438582973046 -0.028442706996547277 -0.021024418457123554
0.02453901884579092 0.036434355697227784 -0.02184160857844152 -0.1255301392129178 0.1129583516545918 0.040466215845976344 0.04298400578308382 -0.10834813978989204
-0.03922351873241528 -0.0021883546269431124 0.0018730159159038521 -0.057693957780729783 -0.13133507063342578 0.09502597330122296 -0.02974129929455167 0.14737473054438896
0.029643156734168157 0.08086779816040221 -0.13439298374366654 0.13287678180229695 0.05795515872001482 0.05616378000334651 0.13963204623977887 -0.0669910517504697
0.006046329905814593 -0.1110276859497431 0.06456897047482059 -0.08727281605930548 0.0825882595028974 0.12994040319559405 0.14457926138865884 0.06451892501091905
0.09358216525247222 -0.04467901865460971 0.07010677456855774 -0.07684244215488434 0.08543214201927185 0.13193683326244354 -0.12059115618467331 0.024854585528373718
0.13284169137477875 -0.08103340864181519 0.04590955376625061 -0.14136436581611633 0.1312018483877182 -0.09434236586093903 0.015183240175247192 0.018218904733657837
0.003216847777366638 -0.013139471411705017 0.11736659705638885 -0.08655548095703125 0.035483017563819885 0.13894854485988617 -0.030275769531726837 -0.08027271926403046
-0.08327879011631012 -0.050653599202632904 -0.08329185843467712 -0.060968875885009766 0.01851801574230194 -0.08492773771286011 -0.044949449598789215 0.09485267102718353
0.032483696937561035 0.07846380770206451 0.06269770860671997 0.018135428428649902 0.0678628534078598 -0.0393400564789772 -0.090878926217556 0.011838749051094055
-0.06930459290742874 -0.13101455569267273 -0.0036879032850265503 -0.028862856328487396 -0.13952219486236572 0.13293872773647308 -0.13523045182228088 -0.05051819235086441
0.08427782356739044 -0.13154178857803345 0.04490625858306885 0.09314657747745514 0.07319913918035148 0.20611118522732427 -0.11654404759709991 -0.0071367833304174615
0.07277823901065304 -0.10512206248056818 -0.12272188488632756 -0.08183979597460443 0.09531384385311618 0.0790393260076748 -0.0007407678174391966 0.05539190641742358
0.13359893264023603 0.010097132354965887 -0.055638816798372584 0.07851393188078844 0.08215944425155428 -0.1235422767932816 -0.18073273614988256 -0.09105732876183216
0.1765339769485901 0.11220353309468918 0.06961956674844015 -0.0869151312386712 0.005227509955889601 0.19474377065946294 0.0020271421924074337 0.1041177319239381
-0.05176573958147908 0.12339771510220839 -0.3184983161475055 0.006262603572494282 0.016892580711610528 0.22303642754501207 -0.0516281313218825 0.12848507895091096
0.078248327314744 0.028661142187842995 -0.05081719123377406 -0.09055214391663113 0.2609172654406402 0.11171621256740817 -0.2126811624062475 0.028594445023862602
0.06279500445678028 0.02731115528634556 -0.13603652169383257 -0.1083871346892111 0.08558718618761514 -0.05440495290618649 -0.09734029540892264 0.08097902563896985
-0.09226141923310924 0.17235228596153532 0.04880875650221448 0.068762274530563 -0.09578292251502474 -0.03243604618486991 -0.0835989718176872 -0.014061621409188292
0.030132357586665236 -0.06981352629112537 0.0573578290333271 -0.09768544496794242 0.08116059011519255 0.11683471450170746 0.13905345760083387 0.11238897522999913
0.01318539223796746 0.11906364536305676 0.05578220256272014 -0.034361325465421116 -0.10347143537653278 0.07041225917993503 0.07673679151323817 0.12350155920690316
-0.09310373484412676 -0.035992577908001915 0.02604590536078219 0.19088066719617672 0.16089646956848894 0.11995426989383495 -0.020775527319781405 -0.08658116933716765
-0.08389152265218001 -0.09956130083730286 -0.03652608706049097 0.053771073542075255 0.08327959446437048 -0.05841482576698573 0.11549553353301849 -0.0713809933950849
-0.04052096073266698 0.0806042107357014 0.026012008357137614 0.0939560405689408 0.14896403104517394 -0.03639335161376453 -0.06822501771314553 -0.09230683965111375
00000000: d322 b99a 41de 94bf 52f4 2151 bc4a a2bf
00000010: c827 463f 6246 a63f 7794 4386 60b8 b03f
00000020: 31e4 7c56 6b80 a1bf 3b17 796a a62c bebf
00000030: 3b09 9242 88c6 c1bf d52a c986 360c b83f
00000040: 8863 c566 59d6 90bf 9861 fca0 ed96 74bf
00000050: bacc e05b db55 b7bf 6bb7 a4e1 82dd b7bf
00000060: 8b17 eebb d57e 87bf 929c 20db 2587 c0bf
00000070: a184 70c1 1520 9dbf c157 c3d6 6c87 95bf
00000080: 64a5 acad c120 993f e541 571c 86a7 a23f
00000090: 5d50 258a a55d 96bf b978 4a21 5f11 c0bf
000000a0: 51a2 2aaa d6ea bc3f 247d 4de3 fcb7 a43f
000000b0: 71c8 2de6 ff01 a63f c3e2 fa24 b4bc bbbf
000000c0: 2429 61e4 1a15 a4bf 01af c0f1 4fed 61bf
000000d0: 63ee a286 ffaf 5e3f f9a8 b0fb 0f8a adbf
000000e0: f11d 986c 96cf c0bf 276d 9947 9f53 b83f
000000f0: 531a 3ecf 8074 9ebf 8bf4 f8d7 2cdd c23f
00000100: 3bd1 e492 c65a 9e3f 3e01 6684 c0b3 b43f
00000110: 0ed6 fe0e ca33 c1bf 3a8a 1e3c 1b02 c13f
00000120: 1685 ac6e 4cac ad3f bb10 abbc 7fc1 ac3f
00000130: 8065 0980 76df c13f cf95 6458 5326 b1bf
00000140: b001 4d53 09c4 783f f8cd 1a78 4f6c bcbf
00000150: 2997 8690 9787 b03f 60f6 cde2 8257 b6bf
00000160: a937 9911 8124 b53f 8bba 131b e3a1 c03f
00000170: 4c0c acbf 9281 c23f 001d e5f0 4f84 b03f
00000180: 618c 3f33 00f5 b73f 77ba e017 2be0 a6bf
00000190: 0000 0080 84f2 b13f 0000 0040 f2ab b3bf
000001a0: 0000 0080 e1de b53f 0000 0060 4ee3 c03f
000001b0: 0000 00e0 0fdf bebf 0000 0000 7b73 993f
000001c0: 0000 00e0 f400 c13f 0000 0000 9bbe b4bf
000001d0: 0000 0000 7581 a73f 0000 0040 3a18 c2bf
000001e0: 0000 00e0 38cb c03f 0000 0040 d226 b8bf
000001f0: 0000 0000 6418 8f3f 0000 0000 faa7 923f
00000200: 0000 0000 385a 6a3f 0000 0000 dee8 8abf
00000210: 0000 00c0 bc0b be3f 0000 0000 8028 b6bf
00000220: 0000 0080 d42a a23f 0000 00e0 10c9 c13f
00000230: 0000 0080 9c00 9fbf 0000 00c0 c08c b4bf
00000240: 0000 0040 c251 b5bf 0000 00c0 44ef a9bf
00000250: 0000 0080 9d52 b5bf 0000 0000 5037 afbf
00000260: 0000 0000 63f6 923f 0000 0000 d3bd b5bf
00000270: 0000 0040 9d03 a7bf 0000 00c0 4348 b83f
00000280: 0000 0000 b4a1 a03f 0000 0040 3416 b43f
00000290: 0000 0000 f50c b03f 0000 0000 1892 923f
000002a0: 0000 00c0 755f b13f 0000 0040 6124 a4bf
000002b0: 0000 0060 d743 b7bf 0000 0000 ea3e 883f
000002c0: 0000 0020 f2bd b1bf 0000 00c0 15c5 c0bf
000002d0: 0000 0000 1836 6ebf 0000 0080 398e 9dbf
000002e0: 0000 0000 dddb c1bf 0000 00e0 2204 c13f
000002f0: 0000 0040 3b4f c1bf 0000 0040 85dd a9bf
00000300: 0000 0040 3b93 b53f 0000 0080 5cd6 c0bf
00000310: 0000 0000 f4fd a63f 0000 0040 74d8 b73f
00000320: 80fd dfc4 2dbd b23f 6711 f2ef d961 ca3f
00000330: 4817 f9a8 d4d5 bdbf 0c64 0bb0 753b 7dbf
00000340: 1f46 693c 98a1 b23f 0e2e 718c 47e9 babf
00000350: db1a 1792 b36a bfbf 9fe4 38ef 73f3 b4bf
00000360: fb86 34f2 7c66 b83f 3604 4dd8 eb3b b43f
00000370: c5d9 60c6 0246 48bf 4746 0df5 535c ac3f
00000380: 7833 3c13 c519 c13f 79d3 fb29 cead 843f
00000390: c204 13e5 b07c acbf f556 b531 7d19 b43f
000003a0: ae32 1ebe 6608 b53f 5b22 8076 77a0 bfbf
000003b0: aa48 8a13 4022 c7bf 41db 1779 884f b7bf
000003c0: f141 d054 aa98 c63f f528 23e9 5eb9 bc3f
000003d0: 27a3 5882 96d2 b13f 9698 32ee 1140 b6bf
000003e0: f70b cd04 7169 753f d582 0a27 5ded c83f
000003f0: 42a2 76ad 399b 603f cd08 8cad 75a7 ba3f
00000400: 6a85 1cfd 0981 aabf 45de c31e fe96 bf3f
00000410: 91d0 ebc2 4662 d4bf 63be 81d8 d0a6 793f
00000420: cd3d cee6 494c 913f 18ae 0f29 758c cc3f
00000430: 2283 299f 006f aabf 3b1f 0ff6 3272 c03f
00000440: 5b95 c816 1508 b43f a17f 73b1 5859 9d3f
00000450: 03e7 d8fc b504 aabf b861 b4e0 6c2e b7bf
00000460: 10e0 8154 deb2 d03f e9f5 6807 6f99 bc3f
00000470: e14a 81e6 2239 cbbf 7027 e6b8 dc47 9d3f
00000480: c579 7e5a 5513 b03f e754 159b 74f7 9b3f
00000490: 1649 de0d a569 c1bf 6e1c cc5e 42bf bbbf
000004a0: 8de9 a1b5 0ae9 b53f 5cea f14a f7da abbf
000004b0: e042 5d29 4beb b8bf a704 c89a 0abb b43f
000004c0: 7eeb 49c2 719e b7bf bd3d ccc3 a30f c63f
000004d0: cdf1 de19 76fd a83f f4ad 4e88 679a b13f
000004e0: 28a3 b7c7 3a85 b8bf 0ab0 261b 759b a0bf
000004f0: 4baa ef01 be66 b5bf b14a a6e0 56cc 8cbf
00000500: 065f 8b49 04db 9e3f 4923 3d9c 4cdf b1bf
00000510: 1143 bc5f 015e ad3f a9b9 6ecf e901 b9bf
00000520: ecd0 44c0 f0c6 b43f 4084 d23d e1e8 bd3f
00000530: 7449 65f2 80cc c13f 8036 0b1d 86c5 bc3f
00000540: 0b76 9363 f100 8b3f 3514 fa7e f47a be3f
00000550: 7e55 691f 7c8f ac3f 5c0d 3ec2 ce97 a1bf
00000560: b62b 039f 1a7d babf e350 6aae 8906 b23f
00000570: 2e07 f3b9 05a5 b33f c574 cc55 cc9d bf3f
00000580: ac7d 4a78 a5d5 b7bf 9ff6 0682 9e6d a2bf
00000590: 7888 e01e c7ab 9a3f 29eb 8517 c76e c83f
000005a0: 9954 6b69 4198 c43f f0a6 35b2 52b5 be3f
000005b0: 461c 9509 2e46 95bf a1a8 c0fa 2e2a b6bf
000005c0: d7e7 3332 ea79 b5bf 701e 0b73 d97c b9bf
000005d0: 2e56 c01a 8cb3 a2bf 3505 abd4 e187 ab3f
000005e0: 8f0b a6be cf51 b53f ac9e 8a4c 8ce8 adbf
000005f0: 2bbf 5b83 1d91 bd3f 0319 3058 0646 b2bf
00000600: b071 4cd2 29bf a4bf 5c9c 0741 7aa2 b43f
00000610: ccea c954 e4a2 9a3f 1058 81c9 800d b83f
00000620: e346 cfdc 4011 c33f 2c26 f23d 26a2 a2bf
00000630: bbd3 d8db 3177 b1bf 80a7 7fc9 6ba1 b7bf
